w_p1/rural.pt (torch, 237109 bytes, 32 tensors)

net.0.weight f4 [64, 10]
00000000: 66fe 993e a88c bb3e 148c f8bc 7264 ce3e
00000010: a050 d7bd ac3d 893d eda6 1dbe c184 7f3e
00000020: 09a9 b03e d71d 46be 94a7 b33e 1eae e0bc
00000030: 02d4 733e 1a4f 8d3d e0cf 913e 6ec3 c33c
00000040: 49a0 793e 2fe2 893d 6733 83be dd01 733e
00000050: b76e 83be c562 d3bd 6419 5cbe 09c9 3c3e
00000060: e154 a1be 1a82 52be 28e0 b6bd 5d73 37be
00000070: 97af 203d 595e 86be 43fa 813e cd11 65be
00000080: 2f22 ad3e bb05 843d 388e ebbd 33ba 2f3e
00000090: 60de 493d d923 b03e 1061 073d 1b52 e4bc
000000a0: eb8b ff3d f84f eabb af2e 643e bb2b 9a3e
000000b0: 83a0 423e c754 17be a1ed 3a3e 56b1 be3d
000000c0: 0be7 a13e 6b09 08be 6feb cebe 2a87 56be
000000d0: dff4 8abe 4336 9e3e 09f9 273e 79b3 3e3e
000000e0: 57d2 cc3d 8e44 2b3d d8a5 5f3e 57c9 63be
000000f0: f9ef bdbc 7166 88be e3a0 0f3e b90c 33be
00000100: 4053 373d 70f6 a4bd 2349 863e e8f4 5fbe
00000110: 4da3 55be 7c70 55be a2a9 413e 9a9d 023e
00000120: d306 c33e 49a7 57be 0a4f b5be 8ae5 8ebe
00000130: 0cd4 59be 07ea 0b3e 5071 373e 0ceb bc3e
00000140: 6077 91be 8d65 95be 2e04 393e 4f9c 6abe
00000150: 107a dd3d 85c3 2bbe 033d 393e d18f 7cbe
00000160: 57f8 0cbe dcf3 173e 6184 443d 5dcc 95bd
00000170: b08f c13e 8573 2a3e 9c29 5bbe e7dd e0bd
00000180: e940 943e 04d4 9cbd ede8 3cbe f689 bbbe
00000190: 8264 63be 2b9b 283c 4432 95bd da47 9fbe
000001a0: 6793 abbd 4855 9dbe dc5c 89be 8738 39be
000001b0: b78c 96be b616 26be 7a85 993e 1711 8ebc
000001c0: f8dd 173d e3e3 bdbe 77d2 8ebe ea24 46be
000001d0: eb8a 4a3d 99e7 a9be 92cb 01be edd6 30be
000001e0: b730 0dbd dd27 50be d744 763b 7731 99be
000001f0: a831 74be de03 87be 01af ddbd 47d0 9bbe
00000200: 8e5b 863e 940c a6bc fd11 783e 25b4 c93c
00000210: 23e4 9cbe 5e73 0b3e ca63 10be 0b99 49be
00000220: 4465 86be f6f5 c1be ee9e 3e3e 6d7a afba
00000230: f372 a03d ee89 8bbe fd1f cb3e 0e8b 90be
00000240: 8b2c 3cbd d519 883b d62b 273e 189a 793e
00000250: 68a6 ad3e 8f46 8abe 3525 173c efd8 36be
00000260: 783e 1a3d 1e64 95be f9b0 7b3e 6372 bebe
00000270: 8510 2d3e c84f 263e 4335 503d a51b 1fbe
00000280: e3b4 873e 534a 573e f6be 1e3e a681 3bbe
00000290: 9381 e23d 3460 c3bd 3a59 14be 5b7e a53e
000002a0: 5d73 563e 4c5e f1bd d2db bebd d28c 1f3d
000002b0: 2a00 a63e da40 3bbd c012 22be 3444 22be
000002c0: 6cea 71be cc3b 4b3e c60a 503e ad34 d6be
000002d0: 70f9 a63d 0080 d33d 23e4 313e d34f f6bd
000002e0: 2a4d 973e d38b 803e 0d2b f23d d21e 04bd
000002f0: 0ad5 18be 2ea9 f43d 8539 14be f51d 43bd
00000300: eaad 8e3e 72f7 613e 854a 93bd d980 1ebe
00000310: 2035 973b 105c 6abc 12f6 183e fc35 1d3e
00000320: 21b4 c4be d18a 3ebe 7b29 b03e 796a 043d
00000330: ed00 84bc 78cf 83be ef1c 46be 6664 95be
00000340: 16ac 1f3c ae2d 793e 0940 293e 5444 fd3d
00000350: dd74 9abe b250 36be 874f 08be f4df c23e
00000360: d05e 3b3d b2e0 f4bd 846e 473e 7d69 5fbb
00000370: a86c a5be 512e 893e 651e fabd d145 abbd
00000380: 7f4d 8dbe f0b9 4f3e cc55 753e 9728 2d3e
00000390: a1e5 9fbe d2ed c0be 2f04 a3be 2692 933e
000003a0: 01c2 6e3e d0de 8e3e de16 313e ff35 cf3d
000003b0: 53f2 4abb fc6f 0dbe 5ed1 9ebe 3a54 96be
000003c0: ec21 da3d 3ec9 19be c34c 20bd d05f fcbd
000003d0: d0f4 94bd 1579 9bbe 5696 53be 7bd0 343e
000003e0: d089 b1bd 1f1f a33e 4745 d9bd 455e a6be
000003f0: e30b a73b 34b0 83be e88f 99bd faad d5be
0.30076903 0.3663075 -0.030340232 0.4031101 -0.10513425 0.06701216 -0.15395708 0.24952985
0.34503964 -0.1934732 0.3508879 -0.027426776 0.23811343 0.06899853 0.2847891 0.0238969
0.2437755 0.06732594 -0.25625154 0.2373118 -0.25670406 -0.10321573 -0.21494061 0.18436064
-0.3151007 -0.20557442 -0.08929473 -0.17915101 0.039229956 -0.26243857 0.25386247 -0.22370072
0.33815143 0.064464055 -0.115017354 0.17160873 0.04928434 0.3440235 0.03305155 -0.027871182
0.12477859 -0.0071506463 0.22283433 0.3011149 0.19006543 -0.14778434 0.1825471 0.09311168
0.31621584 -0.13284843 -0.40413997 -0.20949998 -0.27139947 0.30900773 0.16403593 0.18623151
0.10001057 0.041813426 0.21840608 -0.22244774 -0.023185717 -0.26640657 0.14026217 -0.17485322
0.044757128 -0.08054817 0.26227674 -0.21870768 -0.20863076 -0.2084369 0.18912366 0.12755433
0.38091144 -0.21059908 -0.35411865 -0.279095 -0.21272296 0.13663493 0.17914319 0.36898077
-0.28411388 -0.2917904 0.18068 -0.2291119 0.10814297 -0.16773804 0.1808968 -0.24664237
-0.13766609 0.14839119 0.04797781 -0.0731437 0.37804937 0.1664563 -0.21402591 -0.109798245
0.28955773 -0.07657626 -0.18448229 -0.36628693 -0.2220631 0.010290901 -0.07284978 -0.31109506
-0.08377724 -0.30729127 -0.2682866 -0.1808797 -0.29404232 -0.16219601 0.29984647 -0.017342133
0.03707692 -0.37087926 -0.27894947 -0.19350019 0.04944889 -0.33184507 -0.12675312 -0.17269488
-0.034470286 -0.20327707 0.0037577653 -0.2992055 -0.23847067 -0.26370138 -0.10824395 -0.3043234
0.26241726 -0.02026967 0.24225612 0.024622032 -0.30642805 0.13618228 -0.14100567 -0.19687288
-0.26249135 -0.37882966 0.18615314 -0.0013387926 0.07834425 -0.2725367 0.39672843 -0.2823109
-0.045940917 0.00415347 0.16325316 0.24375188 0.3391602 -0.27006957 0.009225179 -0.17856191
0.03765723 -0.29177946 0.24579228 -0.37196645 0.16900833 0.16241372 0.050832044 -0.1553789
0.26505193 0.21024446 0.15502533 -0.18311176 0.110598706 -0.09539834 -0.14487162 0.32322964
0.20942445 -0.11785564 -0.09319271 0.038952656 0.32422 -0.045716144 -0.15827465 -0.1584633
-0.23624581 0.1984703 0.2031661 -0.41837063 0.08153045 0.103271484 0.17372184 -0.12026944
0.2955106 0.25106677 0.118246175 -0.032255955 -0.14925018 0.11946331 -0.14475067 -0.04763599
0.2786706 0.22067049 -0.07191948 -0.15478839 0.0046144873 -0.014304176 0.14937618 0.15352625
-0.38418677 -0.18607642 0.34406647 0.032328103 -0.016113723 -0.25744224 -0.19346975 -0.2917816
0.009745618 0.24333832 0.16528334 0.12366548 -0.30167285 -0.1780422 -0.13311587 0.38061488
0.045744717 -0.1195692 0.19475752 -0.0034089976 -0.3230946 0.2679315 -0.122128285 -0.08362926
-0.27598187 0.20285773 0.2395851 0.16910015 -0.3122988 -0.37681442 -0.3183913 0.2882244
0.23316194 0.27904367 0.1729388 0.10117721 -0.003096719 -0.1381225 -0.3101911 -0.29361135
0.10651001 -0.15018174 -0.039135706 -0.12322962 -0.07273257 -0.30365816 -0.20662817 0.17657654
-0.08668864 0.3185968 -0.10608917 -0.32493797 0.0050978526 -0.2572037 -0.07498151 -0.41734296

net.0.bias f4 [64]
00000000: 67e3 5d3e 7e51 41be a916 d03e d744 983e
00000010: c537 7ebe cc9d 08be 7905 493e 72c6 093d
00000020: 3ba0 203d 051b a7bd 5ee2 b43e 2f4e b5bd
00000030: 13d3 ae3e f41e cb3d a71e f53d d789 b23e
00000040: 72b8 f6b9 728d bebd a34c 723c f451 b23e
00000050: cde0 2bbe d6ff 0a3e de64 50be 8d2a 833e
00000060: 22ac 4a3e 69d0 043e 7887 623e ee2a 3b3d
00000070: e053 973e 0cc5 26be 988b 453d f7b1 853e
00000080: e6fb e13e ec24 873e c6a3 1ebe 9f41 883e
00000090: c138 9f3c e847 1dbc 471f 2abe cdc2 2cbc
000000a0: 7d07 923e 7b01 3e3e 4750 e7bd 88bc 5b3e
000000b0: 4e0b 0f3c a023 c73e ebda 46be da12 80bd
000000c0: 46d0 7abe da90 9f3c 74c0 103e a523 ad3e
000000d0: 40bb 423e e617 ac3e 5544 8a3d ba87 9c3e
000000e0: 8d78 c53e 0d60 a33e 0b26 44be 64e5 c03e
000000f0: f9cb a13e de7d d2bd ce50 92bd 168e 01be
0.21668778 -0.18878743 0.40642288 0.2974002 -0.24825962 -0.13341445 0.19630994 0.033636518
0.039215308 -0.081594504 0.35328954 -0.08852803 0.34145412 0.09918013 0.11968737 0.34870788
-0.000470582 -0.09304322 0.014788779 0.3482815 -0.16784973 0.13574156 -0.20350978 0.256184
0.19792226 0.12970127 0.2212199 0.045695238 0.2955618 -0.16286105 0.04822883 0.2611234
0.44137496 0.26395357 -0.15492162 0.26612565 0.019436242 -0.009599663 -0.16613494 -0.010544491
0.28521338 0.18555252 -0.112946086 0.21458638 0.008730723 0.38894367 -0.19419448 -0.06253596
-0.24493513 0.01947825 0.14135915 0.33816257 0.19016743 0.33611983 0.067513146 0.305723
0.38568535 0.31909218 -0.19155137 0.3767501 0.3160093 -0.102779135 -0.071443185 -0.12651858

net.2.weight f4 [32, 64]
00000000: abf9 fbbc 33d1 a5bd 989f f63c 273e 103d
00000010: a574 47be 5107 bb3b 528c c738 7b01 d9bc
00000020: 946c fb3d e23b 1bbe 3255 e13d b176 b53d
00000030: ba8c 013d 4b0d 13be cb33 c9bc 2ceb c6bc
00000040: 5ced 61bd cab9 a23c e71e c33d 0243 9e3d
00000050: 10b3 84bd 2708 903d da39 e7bc 7bae 19be
00000060: f806 00be 6443 92bd 33df f73d 2a0a 10be
00000070: 3a84 21be 240a 903d df9a 023c 201c cf3d
00000080: 662d dcbd 3040 b1bd 6a00 483d fddf 703d
00000090: cdce 9d3d c9d5 c9bc 33de 8a3d a3ef 793d
000000a0: 168f b4bd f03f 9bbd 2295 263e 1a88 14be
000000b0: 3bde f4bd 1f21 973d 6e19 4c3d 2c43 a4bb
000000c0: fad4 b3bd dbd7 ddbd a7ea 1f3e 4c38 babd
000000d0: 3220 04bd 5281 973d c57e 97bd dd41 af3d
000000e0: 3c9a 96bd 474f 3dbd edb4 dd3b a917 d0bd
000000f0: b6ef 17be 6a1a f43d 37ba d43b be2a 09be
00000100: 66c6 1cbe a098 2b3e 5512 153c 7d82 8f3d
00000110: e6b3 1ebe 14b5 78bd e112 77bb 589f 98bd
00000120: 48dd 103b 0e22 b2bd 930f ff3b b8d6 80bd
00000130: 2c6e 55bc c6cb c6bd 7031 623c 1a34 7d3d
00000140: dd58 e8bd 12b5 67be bad5 f83d 3ecb 4cbc
00000150: 7d01 82bd 3e88 b93d f8ed d9bd bb0f 653d
00000160: e763 803d 8e84 0abe e6d4 df3d fd9a 12be
00000170: 9d3e f0bd 7f9c 9dbc 28e8 12be 5282 ea3d
00000180: ae33 80bd 45d8 493d 0e9c e7bd 1c09 243d
00000190: 2506 65bc 86aa 3abe 2d9c 1f3d c6fe 193d
000001a0: 091c 493d bfa7 79bd 80f8 e03d 9037 55bc
000001b0: e59e a0bc 09fa 0b3b bca4 ecbb 3f3c 9ebd
000001c0: 25e5 ca3c 6895 623d bc96 123d be4c 6b3d
000001d0: cdc5 cdbc 3c24 1c3e 96dc 81bd 453b 25be
000001e0: 95bb 92bd 301b c5bb 6b30 123e d80f ccbd
000001f0: 5ff6 7b3c 1e2c 243b 7039 913c 2b80 bdbd
00000200: 13ba ccbd 1860 28be 5a09 0bbe ee91 833d
00000210: 9dea 29bd 4bd6 f6bd 98f9 58bd 2831 95bd
00000220: 4b06 603d 0d05 06be bb7e b5bd 7d6e 58be
00000230: a651 abbc ddca 84bd 0c4c 143d 92ba c3bc
00000240: df44 7e3d 0e93 313e fa19 91bd b999 3d3c
00000250: 2097 54bc e195 e3bc b811 01be 1757 66bc
00000260: 1e22 fd3d c313 c03d 4212 873c da7c 8b3d
00000270: 8e18 9a3d 5bc2 dabd 7276 013e 30d2 68bd
00000280: ffd6 9fbc 40dd de3d f129 083e 9e7b 9a3d
00000290: ff8b cebc f811 52be 6564 88bd 7475 c83d
000002a0: b5e4 d53d 1eda 09bd 160f 20be e7ff 84bd
000002b0: 0539 9f3d ed87 663c b7c4 503e 66f9 c03b
000002c0: f142 0b3c 7307 843d 449a c9bd 0bdf c93d
000002d0: c922 0a3e fe34 083e 07d5 873d f3fa 113d
000002e0: 830a eebd 2bdd 283c d77d 16bd 3100 30bd
000002f0: cbaf 013d 537e a2bd c2ae 243e 22c9 143d
00000300: b2d6 65bd bfc0 7cbd 6fac 19bd 915b 81bd
00000310: 9250 d63d b9e4 813d cc10 ca3d 05a1 9f3b
00000320: 12ce 8d3c 4b2a 013d 3431 05be f802 1eba
00000330: 5200 64bc 68eb 9bbd 506a e3bd eb10 c63d
00000340: 2406 b23d 07cb 5d3d 59cf de3d 7070 65bd
00000350: c567 debc c7b1 203d 7418 cfbc 1168 13bd
00000360: b495 e9bd f88d 093d d48e b8bd ce23 0dbc
00000370: 5706 ec3d 895a 45bd 932d 38bd c7fc 763d
00000380: 1d80 63bd 0663 cbbc ecef e83d 6aa6 2cbd
00000390: a596 c2bd 868f a2bd 24f3 0dbd 0aad 8ebd
000003a0: 60c5 8cbd e335 1b3d 865d 8f3c c155 34bd
000003b0: 3672 d9bd 3e0d 50bd 2961 33bd 762f 41bd
000003c0: 88f1 e6bd 6366 5c3c 4ef2 cfbd 2e6d dabd
000003d0: 5e5c e1bd f98d 1f3d f187 abbd d695 3cbd
000003e0: 1688 ae3d a690 5f3d ae8d 823d 1ebf e7bd
000003f0: 2b41 acbd 5d75 1bbd 9227 c63d b980 1a3c
-0.0307587 -0.08096542 0.030105397 0.035215523 -0.1947809 0.0057076593 9.515196e-05 -0.026489964
0.12276569 -0.15159562 0.11002578 0.08860529 0.031628348 -0.1436054 -0.02456083 -0.02428206
-0.055158004 0.019863982 0.095273785 0.077276245 -0.06479466 0.07032805 -0.028225828 -0.15007965
-0.12502658 -0.0714176 0.12103119 -0.14066377 -0.15773097 0.07033184 0.007971494 0.10112786
-0.107508466 -0.08654821 0.04882852 0.058807362 0.0770546 -0.024638074 0.067806624 0.06101955
-0.08816354 -0.075805545 0.16267827 -0.14505044 -0.119564496 0.07379364 0.04982894 -0.0050128903
-0.087808564 -0.10832187 0.15616857 -0.09092769 -0.032257266 0.07397713 -0.07397226 0.08557484
-0.073536366 -0.046218183 0.006765953 -0.10160763 -0.14837536 0.119191006 0.006491925 -0.13395211
-0.15310058 0.1675744 0.009098609 0.070073105 -0.15498313 -0.060719565 -0.0037700462 -0.074522674
0.002210455 -0.08697902 0.007783839 -0.06290954 -0.013026755 -0.097068354 0.013805732 0.061817266
-0.11345074 -0.22627667 0.1215014 -0.012499629 -0.0634794 0.09059189 -0.10641092 0.055923205
0.06269055 -0.13527128 0.10929279 -0.14316936 -0.117306925 -0.019239662 -0.14346373 0.11450638
-0.06259857 0.049278516 -0.11309062 0.04004775 -0.013978516 -0.18229112 0.0389673 0.037596487
0.049099002 -0.06095099 0.109848976 -0.013013735 -0.019607017 0.002135875 -0.0072217863 -0.07726335
0.024767468 0.055318266 0.035788283 0.057446234 -0.025118733 0.15248197 -0.063409016 -0.16135891
-0.07164685 -0.006015204 0.14276282 -0.099639595 0.015378564 0.002505071 0.017727584 -0.09252962
-0.09996428 -0.16442907 -0.13577786 0.06424318 -0.04148351 -0.12052592 -0.052972406 -0.072847664
0.0546935 -0.13087864 -0.088620625 -0.21135898 -0.020912956 -0.064840056 0.036205336 -0.023892675
0.0620774 0.17341253 -0.07085033 0.011572295 -0.012975484 -0.027781429 -0.12604415 -0.01405885
0.12360023 0.09378769 0.016488198 0.06810923 0.07524215 -0.106816016 0.1264284 -0.056841075
-0.019511698 0.10882044 0.1329725 0.07543109 -0.02521324 -0.20514667 -0.06659774 0.097880274
0.10444013 -0.03365528 -0.15630755 -0.06494122 0.077745475 0.014070493 0.20387541 0.0058891056
0.008499847 0.06446733 -0.09843877 0.09856995 0.13489832 0.13301465 0.066324286 0.035639714
-0.11623099 0.010306637 -0.036741104 -0.042968933 0.03166179 -0.07934251 0.1608229 0.036324628
-0.056112953 -0.061707254 -0.03751796 -0.06316293 0.10464586 0.063424535 0.09866485 0.00487149
0.017310176 0.031534474 -0.13007051 -0.0006027664 -0.013916092 -0.076132596 -0.11104262 0.096711956
0.086925775 0.0541487 0.10879392 -0.056015432 -0.02714909 0.03923204 -0.025280215 -0.035987917
-0.11405507 0.033582658 -0.09011617 -0.0086144935 0.11524647 -0.048182044 -0.044965338 0.06029966
-0.0555421 -0.024827491 0.113738865 -0.042150892 -0.095013894 -0.07937531 -0.034655705 -0.06966598
-0.06873584 0.037893187 0.01750065 -0.044027094 -0.10617487 -0.05079388 -0.04379383 -0.047164403
-0.11276537 0.013452145 -0.10153638 -0.106653556 -0.11003946 0.038953755 -0.08375538 -0.046041332
0.0852205 0.054581307 0.063746795 -0.113157496 -0.08410867 -0.037953723 0.09675516 0.009430104

net.2.bias f4 [32]
00000000: b173 fd3d 44a3 653d e3e3 ad3d 0232 63bd
00000010: f88d eb3d 407b cc3d 7540 2d3e 49e6 49bd
00000020: b939 253e cf91 363e 8b50 efbd fa03 c23d
00000030: b538 cfbd 1055 a2bd 3654 6fbc db73 ef3d
00000040: b64b efbc 2ee3 91bc 26a3 9e3b 1608 013e
00000050: 3af9 08be b284 a13c bc03 4ebc 49ba fa3d
00000060: 503b 67bd 857f 0a3d 1508 c5bd c0f2 e7bc
00000070: 293a 823d 28ba 25bb 634f 7d3d 601a 03b9
0.12375582 0.056063905 0.084907316 -0.055467613 0.11501688 0.099844456 0.1691912 -0.049291883
0.161353 0.17829059 -0.11685284 0.09473415 -0.10118238 -0.07926381 -0.01460748 0.116920196
-0.029210906 -0.017808523 0.004841226 0.12600741 -0.13376322 0.019716594 -0.0125741325 0.12242562
-0.05645305 0.03381302 -0.09620682 -0.028313994 0.063587494 -0.002528796 0.061843287 -0.00012502959

net.4.weight f4 [4, 32]
00000000: d472 52bd 1318 1a3d c712 4dbe 1d62 f83d
00000010: f813 08be 3156 33be b968 87be 1a86 afbd
00000020: 575d 4fbe 1be1 84be a8f7 263d 1829 01bd
00000030: cf3c 1d3e 5096 0c3d 81b6 44bc 1e7f b8bd
00000040: 9431 06bd 524b b83d cd33 a63c 8632 95be
00000050: c7f5 47bd fd69 a0be b810 8cbd b41e 8fbe
00000060: 141c 1d3e fce2 823b 3be5 e9bb 5390 83be
00000070: 3e12 8bbe 2bd2 c4bd 04ab cfbd ab34 4cbe
00000080: fae0 9a3d 6d52 0ebe f0e1 86bd 1c0c f63d
00000090: 9aa3 10bc 78f3 36be 0fad b2bc de25 ae3d
000000a0: c0cd 66be e0d9 95bc 2a43 a53c 9a70 0abd
000000b0: 8482 193e c2b1 08be cd7d cfbd 0b3d 30be
000000c0: 785f 5ebe 2d0e e63d 5f90 19be 5bd6 96bd
000000d0: 2ca2 ab3d 1450 69be 51ef 51be b3a8 2ebd
000000e0: dfd5 1d3e 537a 42bd 505f ec3d e79a e23a
000000f0: 0a58 c9bc aae7 36be 2949 1e3e 39a1 813c
00000100: 9736 333e 5a39 7d3e d6d3 7fbe 52ef 143d
00000110: 3e3b 773d 15df 0cbc 07eb 9e3d dbbb dc3d
00000120: 7dda 833d d42a 1ebe d00b dbbd 1c59 e53d
00000130: c892 7ebd af54 c7be 4cbd bd3e 04a6 433d
00000140: f9f3 05be 6571 e8bc 9265 913d ccc8 bfbd
00000150: 2e8b a23d 71c9 9bbd b78d 283e 4bd8 733e
00000160: 31fe ee3d 1e27 2c3e f872 3cbd 269b 033d
00000170: 6837 cc3d 7fc6 883d dafa 16bd bf34 263d
00000180: 1e22 02be 9acc 04be 11ae c5bd eadd 05be
00000190: ac1b 5dbe 2605 773e 0323 d03d e5a3 27be
000001a0: 55e5 31bd af57 e63d 35b6 0dbd 91cd dabd
000001b0: dfb7 31bd 81b4 4e3e cd02 30be 549f 943d
000001c0: b10d 4f3e 6e45 603e 1fec 653e 1ad4 b13d
000001d0: 02c8 8ebd 4110 853d 6fed 12be 6cec d03d
000001e0: 70b8 aebc da70 a1bd 1bc0 0fbe 1a4e 1f3e
000001f0: fd59 173e decc 5e3e b4d3 4fbd 93f7 e63d
-0.05137904 0.037620615 -0.20026694 0.121280886 -0.13288867 -0.17513348 -0.26447085 -0.085705
-0.2025045 -0.25952992 0.040763527 -0.03153333 0.15355228 0.034323037 -0.012006403 -0.09008621
-0.032762125 0.08998741 0.020288372 -0.2914011 -0.048818376 -0.31330863 -0.06839126 -0.27953112
0.15342742 0.003994344 -0.007137922 -0.25696048 -0.27162355 -0.09610399 -0.101400405 -0.19941966
0.07562442 -0.1389863 -0.06586063 0.120140284 -0.008828068 -0.17866313 -0.021811036 0.08503316
-0.22539425 -0.018292367 0.020173628 -0.03379879 0.14991194 -0.13349059 -0.101314165 -0.17210786
-0.21716106 0.112331726 -0.1499648 -0.07365104 0.08380541 -0.22784454 -0.20501448 -0.042641353
0.15413617 -0.04747994 0.11541617 0.0017288596 -0.024578113 -0.1786181 0.15457596 0.015823947
0.17501293 0.24728909 -0.24983153 0.036361046 0.060359232 -0.008598109 0.07759672 0.10778018
0.06438158 -0.15446025 -0.106956124 0.11198637 -0.0621517 -0.38931796 0.37058485 0.047765747
-0.1308135 -0.028374383 0.07099451 -0.09364471 0.07936703 -0.07606781 0.1646031 0.23812978
0.11669577 0.16811797 -0.04600808 0.032130383 0.099715054 0.06678485 -0.036860324 0.040577646
-0.12708327 -0.12968674 -0.09652341 -0.13072935 -0.21592587 0.24123058 0.10162928 -0.16371115
-0.0434316 0.11247193 -0.034597594 -0.1068374 -0.043388244 0.20186044 -0.17188568 0.07256952
0.20220067 0.21901485 0.22453354 0.08683033 -0.06971742 0.06497241 -0.14348386 0.10201344
-0.021328181 -0.07882853 -0.14038126 0.15557137 0.14780422 0.21757838 -0.050739005 0.1127769

net.4.bias f4 [4]
00000000: d0f1 82bd 8e69 26be 6282 06be f533 153e
-0.06393778 -0.16251203 -0.13135675 0.14570601

net.0.weight f4 [256, 10]
00000000: 58f6 fbbd df25 443e b3fb c8bc 6e28 d3bd
00000010: 6d76 ef3c 2262 bd3d 3db3 b4bd 83e6 c1be
00000020: 0730 18be dce5 d9bc e390 883d a532 7c3e
00000030: eb56 f73a 6aa2 623d 0012 203e 6274 56be
00000040: 65e5 d6bd 1829 923e 16b4 3e3e 4448 fa3c
00000050: 8b94 aebe e768 0e3e 77bd 9fbe 61ee 1d3e
00000060: 801c 53bd fdc9 d83d f1d1 9dbe 44c0 4bbe
00000070: 7fe6 223e 7440 813e 1d57 23be 8ee2 8b3e
00000080: 53eb 83bd 70d9 48be 3115 16be e40f 94bc
00000090: 6136 66bd fec2 903e 679a 1dbe 6eed 16be
000000a0: bbc1 d3be 4e16 7d3e 6600 9abd 926f 8bbe
000000b0: f89c 6abd 23da 63bc c9dd b33d b544 cebd
000000c0: 455b 883e a81e 4cbd 46f4 a8bd 4a66 9abd
000000d0: 128c 7c3d cab9 813e 7c08 02bc 292f 603e
000000e0: 9c5f 7e3e 7e51 a8be 15bf 07bd cae6 1dbe
000000f0: 87a3 843d 603c d5bd 7aae 3b3e defb 893c
00000100: fd37 48be c771 82be e223 9ebe 13c7 8dbe
00000110: cc03 cf3d 0f4b 1d3d 9025 a03e 83f3 73be
00000120: 62b1 ef3d e5fa 7cbe 5eb3 953d f205 693e
00000130: 323d 91be e652 e23e 61a5 3abe 4c69 933e
00000140: b252 e5bd d44b 363e cfb2 923e 8f81 ffbd
00000150: 02ec 80bd 1271 173e 6f9d 8abe 3007 893e
00000160: d675 7ebe 2aa1 8c3e ba3d 58be ca62 15be
00000170: da32 873e 8c20 24be d046 7e3e e37b 613e
00000180: 80fc 933e 55f9 c7be b729 41bd 52a8 86bd
00000190: bfd8 d13d a0ba 83be d6ce 093e e89f 8fbb
000001a0: b263 03be bd1f 9abe e560 293e bde2 f1bd
000001b0: 61c9 573e 70fd c23d 4d83 803d d09e 84bd
000001c0: c52f 49be a2f4 e9bd af78 c2be 6d4f 523e
000001d0: c5eb 4bbe 9cd9 463e b390 ebbd f33a 5a3e
000001e0: 2f7c b23e dbc5 63be 3932 a43e 510a 05bc
000001f0: a202 d3bd 787f 1b3e a75b 373e 19d3 a13e
00000200: f6df bebe 9020 9a3e fce5 583e 69a7 933e
00000210: b65a 333e ac9f 21be 0e82 963e c618 8c3e
00000220: cba2 f7bd ea40 44bd 12ae 853e 4266 8f3e
00000230: a242 a33e 6abf 833e 5ad7 12be 5f07 37bc
00000240: 3f9b cdbd dbba 343e 0666 a13d 8de4 b1be
00000250: 3319 16bd cfa4 8fbe a273 cbbe 5d83 853e
00000260: 106f 43be 02e5 a63d 34a5 c9bd d4b5 14be
00000270: 4e2a 56b9 9e6c a53e 0e94 20bc 6076 943e
00000280: 26c8 093e c358 593e 7cc4 94be 58f9 d5bd
00000290: 1dc8 84be 1a10 10be ab23 86bd e249 853d
000002a0: bdfb bb3e 1a53 4e3e 3fc6 82be af9a 73be
000002b0: c8f1 943e 6b4f 013d d06b 103e d221 49be
000002c0: fef4 1dbd 5c9e a83d 367e 7cbe ee79 623e
000002d0: 3d27 013e 8dff 64be 4d91 26be 7de0 dabd
000002e0: 52f3 b33c 5852 30be 9de2 9a3e 4391 c5be
000002f0: 98c1 51be 46b3 45be d96b 453d 4c2d 8c3d
00000300: 57ee cebd 1d8f 8f3e c761 9dbe 3a55 eb3d
00000310: 532e 32be 7379 e73b 73c2 babe 0ed8 8bbe
00000320: 49ef a9be f28c e03d 6b18 13be e693 ec3d
00000330: ccbd 3bbe 3473 14be d7c9 1c3d 4d90 893e
00000340: c296 75bd f3a0 5f3e f07e b83d 984b 1d3e
00000350: cdb6 2b3e 1450 9b3d 6663 22be 75db 1fbe
00000360: fc1f fc3d 9c1e 783e b7c9 b5bb b03c 463e
00000370: 9ed0 7ebe 3a81 2a3e a806 30bc fac1 7dbe
00000380: 0a98 32be 1ef4 80be 9ea3 823d 4dd0 8cbe
00000390: 57e1 a6bc 73a6 203d f0ce 53be 6931 8a3d
000003a0: 629f babd 85fc 323e b2d7 583e 0180 2fbe
000003b0: bd0b 313e 6451 6a3d e835 6cbe 8a62 2ebe
000003c0: cf67 073e 84a8 8e3d ebe6 0abd a356 1ebe
000003d0: 0347 2f3e 6d0d a23d 7a65 9dbe 6a88 f0bd
000003e0: 9f6c 04be af22 53be df3b 2bbe d7fd 4abe
000003f0: ed98 b53e f1a8 5bbe f7fa bb3e 2a6c 83be
-0.12302846 0.19155072 -0.024534082 -0.10310446 0.029231275 0.09247233 -0.088232495 -0.3787118
-0.14862071 -0.026598863 0.0666826 0.24628694 0.0018870508 0.05533067 0.15631866 -0.20942834
-0.10492972 0.28546977 0.18623385 0.030552037 -0.34097704 0.13907205 -0.31199238 0.15422966
-0.05154085 0.10585401 -0.30824235 -0.19897562 0.1590824 0.25244486 -0.159512 0.27321285
-0.06441369 -0.19614196 -0.14656521 -0.018073983 -0.056204204 0.28273767 -0.15390931 -0.1473901
-0.41358742 0.2471554 -0.07519607 -0.2723356 -0.057278603 -0.013906988 0.087825365 -0.100716986
0.26632133 -0.049833924 -0.082497165 -0.07539041 0.06165702 0.25337058 -0.007936593 0.2189299
0.2484116 -0.32874674 -0.033141214 -0.1542007 0.06476503 -0.10411906 0.18328276 0.016843732
-0.19552608 -0.2547743 -0.3088675 -0.27690944 0.10108146 0.03840166 0.31278658 -0.23823361
0.11703755 -0.24705084 0.07309602 0.22756174 -0.28367 0.4420387 -0.1822715 0.28791273
-0.111974135 0.17802364 0.28652045 -0.12475883 -0.06295015 0.14789227 -0.27073237 0.26763296
-0.24849638 0.27466708 -0.21117297 -0.14588466 0.26405984 -0.1602804 0.248317 0.22019915
0.2890358 -0.39057413 -0.047158923 -0.06575073 0.10246419 -0.2572832 0.13457808 -0.004383076
-0.12831 -0.3010234 0.16540869 -0.11810825 0.21072914 0.095209956 0.06275044 -0.064756036
-0.19647129 -0.11423613 -0.379827 0.20538111 -0.19914158 0.19418949 -0.115022086 0.2131155
0.3486037 -0.22243445 0.32069567 -0.008120135 -0.103032365 0.15185344 0.17906056 0.31606367
-0.37280244 0.30102968 0.21181482 0.2883866 0.17515072 -0.15783566 0.293961 0.2736265
-0.12091597 -0.04791347 0.26109368 0.28007704 0.31886774 0.25731975 -0.14339963 -0.011171191
-0.100393765 0.17649405 0.078807876 -0.34744683 -0.036645126 -0.28055426 -0.39736658 0.26076785
-0.19085336 0.081491485 -0.09845963 -0.14522487 -0.0002042439 0.3230943 -0.009800924 0.28996563
0.13455257 0.21225266 -0.29056156 -0.10447949 -0.25933924 -0.14068642 -0.06549772 0.06508233
0.367155 0.20148888 -0.25541875 -0.23789476 0.29090714 0.03156988 0.14103627 -0.19641808
-0.03856372 0.0823333 -0.2465752 0.22116825 0.12612624 -0.2236311 -0.16266365 -0.10687349
0.02196661 -0.17218912 0.30251017 -0.38587388 -0.20484006 -0.19306669 0.048198555 0.06844577
-0.101040535 0.28038874 -0.3073866 0.11490865 -0.17400484 0.0070640384 -0.36476478 -0.27313274
-0.33190373 0.10964383 -0.14364783 0.11551647 -0.1833412 -0.14497072 0.038278427 0.26867905
-0.059958227 0.21838741 0.090085864 0.15360868 0.16768952 0.07583633 -0.1585823 -0.1561106
0.12310788 0.24230427 -0.005547728 0.19359088 -0.24884269 0.16650859 -0.0107437745 -0.24781027
-0.17440811 -0.25186247 0.06378864 -0.2750267 -0.020371122 0.03922124 -0.20684409 0.067477055
-0.09112431 0.17479141 0.21176031 -0.17138673 0.17289634 0.057206526 -0.23067439 -0.17029777
0.13223194 0.069657356 -0.033911627 -0.15462737 0.17116933 0.07912717 -0.30741483 -0.11744769
-0.1293206 -0.206187 -0.16722058 -0.19823395 0.35468236 -0.21451165 0.36714908 -0.2566846

net.0.bias f4 [256]
00000000: aa47 a2bd b23d 5f3e c62e 7abd 2eff eaba
00000010: e760 69be e685 09be 55d0 8b3d 1b6a 96be
00000020: 7673 9bbc fb31 513e ed60 823e 6a7c 8e3e
00000030: 0fc4 65bd e074 053d 6f8e 75be cffa 5b3e
00000040: 2e9f 043e 99da 8c3e 6544 e53b 5bd5 913e
00000050: b687 263e 90d5 a43e f871 27bc 174c 66be
00000060: a2eb 6fbe 8f71 9fbe 3309 973d 4291 79be
00000070: d5f9 9dbd 2168 243e 5921 903e 70f4 23bd
00000080: 792f 8e3e 4750 0fbd 9a05 f5ba 455b 7cbb
00000090: 2b0e b8bd 6e82 123e 5b9f 8abc 2163 38be
000000a0: 53c4 663e 7a8e 28be 9956 3cbe aa4d 1e3e
000000b0: 4e16 4dbc 7eea e6bd 1e2a 90be 82f2 49bd
000000c0: 6c29 83be d19e 693e 8102 1abd ef81 343e
000000d0: 2113 033e 36ed 0a3d ba35 5ebd c8f1 04be
000000e0: b45e f83d 68ae 85be 6309 cbbd 01d6 8d3e
000000f0: 1a85 0f3c d42c 8b3e e84f 513e fb55 6fbd
00000100: 2685 49be f2a1 9b3e 9eb3 b63d 1721 ab3e
00000110: 8982 45be cf0d 103e aadc 9cbe 4aee 03bd
00000120: da99 37be 86f2 87be 380c 903d 829d b73e
00000130: 8651 903d 195b 05bd 12ba a13e 8565 d43d
00000140: 98cd d3bd a62f 3d3e e97b 563e f255 983e
00000150: 7682 983e f902 a03e 2d11 ebbd f182 f33c
00000160: 3357 b8bd acdd 1ebd 412d 933e 20a6 71be
00000170: 2a23 1d3e 5b24 05be c4a7 8a3b df4d 89bc
00000180: 5806 dfbd 8585 443d 1ac0 d8bd 7f7d 8d3e
00000190: e3ab c8bd 8748 8a3e bcf9 ebbd 019e 77be
000001a0: 2f39 8e3e d8d5 f0bc 1e71 13be ca77 b33d
000001b0: 389e e23b 426f fd3c fd11 5cbd faad c5bd
000001c0: cf0d 383e 665a 063e bb8a 903e 38ac e23b
000001d0: 67cf 78bd 60b7 843d c7ad 4ebd 23df e6bd
000001e0: 609c 13be 78e7 72bd 95c9 ab3d 7b64 153e
000001f0: 7ab1 953e 0a2c 88be e7bf 703e 6a61 3abc
00000200: f740 a4be 22db 7e3e cdda 38be 1740 18be
00000210: 2c41 2e3e 9b8e a1bc 4a2f 843e ce8a 20be
00000220: 5fcb 573e 988b 0e3e b497 453e c040 4bbd
00000230: 964d f63d e7cd 143e 9300 b63e cd19 06be
00000240: 4cf6 85be 06ca a6be 49a1 a63d bfa5 77be
00000250: 9623 93bc f307 f3bd 4cf0 c63d 2dfa 82be
00000260: 034e 513e 7d4f 79be 3cda 86be 90e9 813d
00000270: d8a2 81be 9390 873c 375a acbd 6400 a5bd
00000280: 9275 903e a9ae 9abb c1f9 883d 191b cabd
00000290: 6029 223e d5b9 9f3e c54e b13e 5f23 91bd
000002a0: be92 89be 1fea 38be 783b 993d 72c4 183e
000002b0: b10e 623e 2beb 123e 768f b13e 7a91 37be
000002c0: a5af 32be 1227 c5bd 18f9 8a3e bf4c 75be
000002d0: d268 6f3e a6fe df3c b935 7f3e 4c5f 983e
000002e0: 201d ad3e 5444 9a3e eb0a 4dbd 6de5 9fbd
000002f0: d9b5 ff3d ee89 973e f651 3d3d 349e fabc
00000300: 77c0 5cbd 0cb5 9cbd 156f 243e 5d34 adbe
00000310: b90f 793e bba5 0a3d fca1 2bbe dc78 853c
00000320: ff59 80bd 4996 8dbe d2b0 e03b 7807 6fbd
00000330: 2a91 04be a764 043d 56af 863c 16ba 363e
00000340: 2279 83be 93e6 013d e900 45bd 2565 79be
00000350: 383a b23e 07f8 efbd f323 9d3e b20c 8a3e
00000360: 7af9 863c f0ce 503e ebb6 4abe 9950 6f3b
00000370: 1429 6bbe 8c57 51be 306c 063e 26d9 633e
00000380: a712 43be 3bd6 dfbd 7de0 09be 845f 29bd
00000390: 37e1 68be 3a7b 5ebe c54c d1bd c3c6 9d3e
000003a0: cfcd 263d e649 11be 66a0 893e acdc 8e3e
000003b0: 7838 663e afaa 323d 00a0 52bc 418b 673e
000003c0: 6124 423e d410 8a3e 88ad 843e 6714 71bd
000003d0: 7bbb 953e 2051 a93d 0ffb 923e c046 c73e
000003e0: 421f 963e 222b 8a3e c9b1 9e3e 54f2 81bd
000003f0: 6750 28be f4c6 0abe d52e e8bd 35da 7b3e
-0.07923825 0.21800879 -0.061079763 -0.0017928833 -0.22790872 -0.13429984 0.068268456 -0.29377827
-0.018975955 0.20429222 0.25464574 0.27829295 -0.05609518 0.032582164 -0.23980115 0.21482395
0.12951347 0.27510527 0.0069966787 0.2848309 0.16262707 0.32194185 -0.010220043 -0.22489963
-0.2342973 -0.31141326 0.073748015 -0.24371818 -0.07713667 0.16055347 0.28150442 -0.040028036
0.27770594 -0.034988668 -0.0018693686 -0.003850655 -0.08987077 0.14307567 -0.01692169 -0.18006565
0.22535829 -0.164606 -0.1839241 0.15459314 -0.012517525 -0.112751946 -0.28157133 -0.04930354
-0.2561754 0.2281449 -0.037600044 0.1762769 0.12800266 0.03391763 -0.054250456 -0.12982857
0.12127438 -0.26109624 -0.099139 0.27702335 0.008759761 0.2718264 0.20440638 -0.058431607
-0.19679698 0.30396992 0.08920978 0.33423683 -0.19288076 0.14067768 -0.30637103 -0.032209672
-0.17929783 -0.26552218 0.070335805 0.35862356 0.07046799 -0.03255758 0.31587273 0.10370926
-0.10341948 0.18475208 0.20945705 0.2975307 0.29787034 0.31252268 -0.114778854 0.029725524
-0.09001007 -0.03878562 0.28745463 -0.23598528 0.15345445 -0.1300215 0.004231425 -0.016760765
-0.10889882 0.047978897 -0.105835155 0.27634808 -0.0979841 0.2700846 -0.115222424 -0.24181367
0.27778003 -0.029398844 -0.1439862 0.08763082 0.006915834 0.03093684 -0.053728092 -0.09652324
0.17974018 0.13120422 0.28230843 0.0069175027 -0.06074467 0.064802885 -0.050458696 -0.11273029
-0.14415121 -0.059302777 0.08388058 0.14589112 0.29236966 -0.265961 0.23510705 -0.011375764
-0.32080814 0.2488828 -0.18052216 -0.14868198 0.17017049 -0.01972132 0.2581733 -0.1567795
0.21073674 0.13920438 0.19296151 -0.049622297 0.12026517 0.1453167 0.35547313 -0.1309578
-0.26164472 -0.32576007 0.081362315 -0.24184321 -0.017961305 -0.118667506 0.09713802 -0.25581494
0.20439915 -0.24346729 -0.26338375 0.06343377 -0.25319552 0.01654843 -0.084156446 -0.08056715
0.282147 -0.004720528 0.06688262 -0.0986845 0.15836096 0.31196466 0.3463041 -0.070868246
-0.26869768 -0.1805806 0.07482046 0.14918688 0.22075917 0.14347522 0.34679765 -0.17926589
-0.17449816 -0.09626593 0.27143168 -0.23955058 0.2337983 0.027343106 0.24922837 0.29760206
0.33811283 0.30130255 -0.05005924 -0.07807431 0.124858566 0.2959742 0.046220742 -0.030593015
-0.053894486 -0.076517195 0.16058 -0.33829013 0.24322404 0.03384946 -0.16761011 0.016292982
-0.062671654 -0.2765372 0.006857016 -0.058356732 -0.12946 0.032322552 0.016441029 0.17844424
-0.25678355 0.031714033 -0.04809657 -0.2435499 0.34810042 -0.11717229 0.3069149 0.2696281
0.016476382 0.2039144 -0.1979634 0.0036516546 -0.22964889 -0.20443553 0.13127208 0.22250804
-0.19050084 -0.10929533 -0.13464542 -0.041350856 -0.22742163 -0.21726695 -0.10219721 0.30815706
0.040723618 -0.14188346 0.26880187 0.27902734 0.22482479 0.043619808 -0.01285553 0.22611715
0.1895919 0.26965964 0.25913644 -0.058857348 0.292446 0.082674265 0.28707168 0.38921165
0.29320723 0.26986033 0.30995014 -0.063450485 -0.16436921 -0.13552457 -0.113370575 0.24594958

net.2.weight f4 [128, 256]
00000000: 44de 9b3d 6837 29bc 1c67 ea3c 2d24 cbbd
00000010: 07e2 513e d91a 593d f62d b53d 7e5b 9e3d
00000020: d0d7 043c 733e d93d 7d63 203d 927c 92bd
00000030: b752 0fbd 1ee8 80bd d9f9 8a3d e659 9d3d
00000040: b861 763d 6c4f c83c e79f 953d e39c 88bd
00000050: 03ac 793d 2e17 ce3c a38b b63d eb73 04bd
00000060: 2a89 773d 516d d73c 7dd4 7c3c 0a57 a5bd
00000070: f8af 4b3d fb92 a93c e29e 1bbd 1947 e73c
00000080: fecf e83d 719a 793c 88a0 4bbd 3455 2abb
00000090: 7bb6 97bc e5a8 16bd a9da 813c 7fa5 e33b
000000a0: 87da 883c 535a ee3d 8332 f2bc b8ce db3c
000000b0: bb9d 423d 52e6 d339 466c bebd 205f 833d
000000c0: 39d7 9ebd 50ff a23d 6431 393c 0243 b53d
000000d0: 5aed 5d3c 26a3 a5bd ff29 2ebc 212f 99bc
000000e0: 9085 22bd 4a0e a4bd 4771 a63b 59b2 f53c
000000f0: 1da3 8bbd 5214 443d bc8b eb3d 399c 08bd
00000100: e093 83bd 99f0 9b3c 2927 203d 254a de3d
00000110: cc06 143e 1359 603c 10e0 483d 1361 5abd
00000120: b1b8 3e3e 1e3f b9bd 56f5 a5bd 6120 5c3d
00000130: dca2 df3d a2ad f5bc 47e6 89bc 38cd 47bd
00000140: a804 8e3b b79e 243e f0ef 1b3c 4266 1ebd
00000150: e58c 803d e098 e73b ed95 963d fc91 abbb
00000160: 3bc3 483d 8313 cfbd e049 043c 044a ac3d
00000170: 7489 42bd 3af5 263d 40ef 4ebd f41b 793c
00000180: a804 a53c ed86 abbd 7d47 093c 7306 89bd
00000190: e59f 4dbc 0a9b 1fbd b64e 1fbd 8b1e a3bd
000001a0: 8baa 2ebd f957 edbd 8ba0 debd 975b ccbd
000001b0: 5623 683c 7242 8a3c b3be d43c d95c d2bd
000001c0: ea49 8eb9 fddd 373b 979c 8d3d 07c2 5ebd
000001d0: 30ff 03bd 3aa0 253d b2e2 96bd e85b 403d
000001e0: d556 063e 052f b33c 6d1b b1bd bb78 64bd
000001f0: b8ff c4bb 074f b73d 90f4 13bb 7a2a 553c
00000200: 64a2 5d3e 2c2a c4bd 19e0 bc3c b730 923d
00000210: 24d0 aebc e587 3a3b 42f0 5ebd 5bb2 52bc
00000220: ae77 69ba 015f 2939 e9ae f539 5707 02bd
00000230: dffa 0f3c 3fac 3d3d 6bf7 d13c 4ebf 9bbd
00000240: dcc3 d93d 5fa3 8cbd 23bf 2f3c a2a4 a5bd
00000250: 1a0c a93c 41f6 a63d 5448 a53d 68d9 93bc
00000260: 9939 cfbc fb44 213e 3475 87bd a6bb a2bc
00000270: 6c12 d239 98d0 c9bb 1542 ec3d 6e8b 14bd
00000280: eacf 863c 6fef 20bb 36af 43bd 0972 153d
00000290: b840 8e3c a4a8 31bb 0c3b 203d ebca 743d
000002a0: 4bc2 9f3d 6548 553d dc26 b4bd 4496 66bd
000002b0: eea5 a23b d023 623d 5068 70ba 2b66 503e
000002c0: 623e bdbd 5dd2 2bbd 718c 8c3d 060c 693d
000002d0: be3d f73c 67e3 e43b 8bed af3d 80e1 b53c
000002e0: a4ca 21bc 6bac 81bd 7426 213c 2dfb 8cbd
000002f0: 59f6 2d3d e651 783c e7f2 9b3c 73fb 56bd
00000300: 2fab 023e 63f5 f6bc ef5c 48bd cc6e a5bd
00000310: 8318 623d 15ce 6a3a 8818 98bd 0e25 973c
00000320: c2b2 603c 8d29 873a 6b57 c43d 84d0 8fbd
00000330: 8a87 453e 7176 d13d 1e02 bd3c af7c b4bd
00000340: b9bb a13d 99cb a8bc 48d4 da3d 7b55 12bd
00000350: a007 e23c 66e9 003d 6c5b b5bb cb0a ff3c
00000360: a7ab 57bd 9770 10bc 1dfe df3d 8292 443d
00000370: 6928 00bd bfa3 95bd f6c8 1d3d da46 17bc
00000380: 8e9c 80bd 1a88 ba3d 166b b73d ab7c bf3c
00000390: e808 3abc cb84 41bd ce08 4cbd f335 6ebd
000003a0: a6f1 73bb fa6c 433d d2ec 813b 68cd 653d
000003b0: 5c3b 0ebd bc7f 393d b0ad 0a3d 297f 5bbc
000003c0: be0f 283c b90b 933c ecdd a1bd 68b6 7c3d
000003d0: a8e5 ffba 2a5f 9a3c 6af6 51bd 5869 61bc
000003e0: 59f1 d03d 25ad 61bd 6745 5fbd f58c b7bb
000003f0: 7cd5 91bd f306 5a3d 50b6 853c 7452 303c
0.07610753 -0.010328151 0.02861362 -0.09919009 0.20496379 0.05300412 0.08846657 0.077322945
0.008108094 0.10607614 0.03915738 -0.07152666 -0.034990992 -0.06294273 0.06785936 0.076831624
0.060151786 0.024451934 0.073058896 -0.06670549 0.06095506 0.025157537 0.08913352 -0.03233711
0.060433544 0.026297243 0.0154315205 -0.08073242 0.049728364 0.020699969 -0.03799332 0.028232144
0.11367796 0.015234576 -0.04971364 -0.0025990726 -0.01851963 -0.036782164 0.015851336 0.006947219
0.016705764 0.11638322 -0.029565101 0.02683197 0.047513705 0.00040416658 -0.09297995 0.06414628
-0.07755894 0.07958853 0.01130328 0.08850671 0.013545359 -0.08087759 -0.01063013 -0.01869923
-0.039678156 -0.08010538 0.0050794217 0.02999227 -0.06818221 0.04787094 0.115012616 -0.03335211
-0.06424689 0.019035624 0.039099846 0.10853986 0.14455718 0.013693112 0.049041808 -0.053315233
0.18625142 -0.09045242 -0.08103435 0.053741816 0.10919735 -0.029990021 -0.016833438 -0.048779696
0.004334051 0.1607617 0.009517655 -0.03867174 0.062768735 0.0070677847 0.07352815 -0.0052359086
0.04901431 -0.101111434 0.008074254 0.08412555 -0.047494367 0.04076121 -0.050521135 0.015204418
0.020143822 -0.083753444 0.008378861 -0.06690683 -0.012550329 -0.038966216 -0.038893424 -0.0796481
-0.04264311 -0.11589045 -0.10870465 -0.09978407 0.014168581 0.016877387 0.025969839 -0.102716155
-0.0002713942 0.00280559 0.06914633 -0.054384258 -0.032225788 0.040436007 -0.073674574 0.04696265
0.13119061 0.021873007 -0.08647809 -0.0557792 -0.0060119294 0.0895062 -0.002257619 0.0130106155
0.21643978 -0.09578356 0.023056077 0.07138198 -0.021339484 0.0028462347 -0.054428346 -0.012859906
-0.00089060783 0.00016152488 0.0004686036 -0.03174528 0.00878784 0.046306845 0.025630673 -0.07604848
0.1063306 -0.06867098 0.010726723 -0.08088042 0.020635653 0.08152438 0.08070436 -0.018048003
-0.02529602 0.1574897 -0.066141516 -0.019864868 0.00040068047 -0.0061588995 0.11536042 -0.036265783
0.016456563 -0.0024556776 -0.047774516 0.036485706 0.017364845 -0.0027108574 0.03911881 0.05976383
0.0780073 0.052070994 -0.08796474 -0.05629565 0.004963628 0.055209935 -0.0009170817 0.20351474
-0.09240414 -0.041948665 0.068627246 0.056896232 0.030180808 0.0069851163 0.085902296 0.022202253
-0.009874973 -0.06331714 0.009835828 -0.068838455 0.042471264 0.015156245 0.019036723 -0.052485894
0.12760614 -0.030146306 -0.048916753 -0.080777735 0.055199157 0.00089571 -0.07426554 0.018450286
0.013714494 0.0010312066 0.09586986 -0.07022193 0.19289985 0.10227669 0.023072299 -0.08812844
0.078971334 -0.020604895 0.10685021 -0.03572605 0.027591527 0.031472586 -0.00553458 0.031133076
-0.052653935 -0.008815906 0.1093714 0.047991283 -0.031288538 -0.07306623 0.03852173 -0.009233201
-0.062798604 0.091079906 0.08955972 0.023374876 -0.0113546625 -0.047245782 -0.049813084 -0.05815692
-0.003722289 0.04771135 0.0039649988 0.056104094 -0.03472458 0.045287833 0.033857048 -0.013397017
0.0102576595 0.017949926 -0.07903656 0.061697394 -0.0019523399 0.018844206 -0.05126039 -0.013758026
0.102022834 -0.055096764 -0.054509547 -0.00560152 -0.07120797 0.053229284 0.016322285 0.010761846

net.2.bias f4 [128]
00000000: cd73 b43c 91c3 633c 0b16 5ebd 9767 c1bc
00000010: 08cc 86bc 4404 c7bc c3d9 f13d 4173 45bd
00000020: 6e37 e93b f620 9a3d 058e 553d 1460 85bc
00000030: c76b f03c 96d4 70bb cec0 1fbc 5404 3fbd
00000040: 54cd 80bb 8ab2 1d3d 9a73 503d 3d26 473d
00000050: 584c 163d 756a 463d 147f a53d 641b 26bc
00000060: 3728 0cbd 3d35 513d c0c9 0ebd e45a 933d
00000070: 84ed 7d3d da7c c13c 2239 603b 228e 423d
00000080: 51fd 52bd b516 933d 12c8 c1bb 8dfe 08bd
00000090: 9ee5 afbb 3f9c a53d d384 e1bc 1436 19bc
000000a0: 7183 833d 4fb7 8f3c 1a47 e4bc 81d5 973d
000000b0: 318e 673d f3a2 dd3c 05a9 c23d 1ad5 04bd
000000c0: f84d 253c d7dd 9f3c 0ad9 57bd e917 b4bc
000000d0: a9ea 6c3c 3cc1 da3c 865e 0e3d 08f0 33bd
000000e0: 75d7 7a3d f8c7 4dbd a4f5 d53c 9d89 a33c
000000f0: 7b99 983d b1db 57bd 173f 52bd e6f3 203d
00000100: 468f 393d c155 67bb 0e42 4b3d 40d6 95bc
00000110: 3e38 c03d a8ab 423b bd43 16bd 2833 b13c
00000120: 639b 5dbc 872c 383d afd5 4dbc a19b 2b3d
00000130: 97d4 21bd 43a4 1bbc 76a4 12bd 61cd e43b
00000140: fa17 4d3d 39fb 5f3c 2bb1 04bd 4302 32bd
00000150: 8131 4a3d 5f91 413d 74f5 143d b04f 61bd
00000160: 3a94 25bd 9378 dd3d 15a5 893d 6b40 40ba
00000170: d493 85bd 4e01 a23d 69e8 6e3d e4cc 2ebd
00000180: 71c0 d0bc a2ad 3dbc 4634 b73d 23c6 853c
00000190: 7062 c23c d3f0 583d fa7d 6abc ba35 a9bc
000001a0: 9da5 5b3d ea35 d1bc ac00 8c3c ec2f 273d
000001b0: f813 063c 429c d3bc 2ae9 a73d 816c 23bd
000001c0: dde4 8c3d 1a5d b13d 48ee d13d b1f3 a73d
000001d0: c3fd 02bc 8726 6b3d f217 0cbd 98c8 0a3a
000001e0: 7504 82bd f1fa 61bd 720a 543d d30e 92bc
000001f0: f9c7 b13a 2cb2 98bd d2d7 23bd b55a 2b3d
0.022027874 0.013901607 -0.05422024 -0.023608966 -0.016454712 -0.024294026 0.11809113 -0.048205618
0.0071172034 0.07525818 0.052137394 -0.016281165 0.029348267 -0.0036747805 -0.009750558 -0.046634987
-0.003930727 0.038500346 0.050891496 0.04862045 0.0366939 0.04844137 0.08080879 -0.010138366
-0.03421804 0.051076163 -0.034860373 0.071950704 0.06199409 0.023619104 0.0034213741 0.04749883
-0.051511113 0.071820654 -0.005913743 -0.033445884 -0.0053679487 0.08086442 -0.027529156 -0.009351272
0.06421555 0.017543463 -0.027865935 0.074137695 0.05653209 0.02705524 0.09504894 -0.032429792
0.01008939 0.019514961 -0.05269722 -0.021984058 0.014460244 0.02670347 0.034758113 -0.043930084
0.061240632 -0.050239533 0.026118107 0.01996308 0.07451149 -0.05269975 -0.0513297 0.0392951
0.04530265 -0.0035298916 0.04962354 -0.018290639 0.09385727 0.0029704366 -0.036685694 0.021630839
-0.013525817 0.04496434 -0.012563153 0.041896466 -0.039509382 -0.009499612 -0.035801373 0.006982491
0.050071694 0.013670736 -0.032395523 -0.04345919 0.049363617 0.047257777 0.036366895 -0.055007637
-0.040424563 0.10814013 0.0672094 -0.0007333818 -0.065223366 0.07910405 0.058327112 -0.042675868
-0.025482388 -0.011577042 0.08945517 0.01632983 0.02372858 0.052964043 -0.014312262 -0.020655502
0.053624738 -0.025538404 0.017090164 0.040817186 0.008183472 -0.025831345 0.081987694 -0.0398984
0.0687959 0.08660336 0.10250527 0.08200777 -0.007995072 0.05740979 -0.034202524 0.0005294173
-0.06348506 -0.055170957 0.051767774 -0.017829334 0.0013563625 -0.074558586 -0.040000744 0.04183455

net.4.weight f4 [64, 128]
00000000: 2ff5 813d c628 b93c 7222 c73b ad2c 06be
00000010: b02d dabd 4d53 a63d 3e66 ad3d f437 1bbd
00000020: 3e13 323d 1fae e83c 2339 87bd 8db6 a2bd
00000030: 1b57 19ba 2c23 7dbd 0553 b43d d7dc 8dbd
00000040: 2cca 90bd cc44 cdbd c3f8 98bb 443a db3d
00000050: f2dc a4bd de19 0fbc 675a 0bbc 79f9 353c
00000060: da2d 1b3c cc49 1cbc 2a0c 1e3d 82a9 4c3d
00000070: 9a4a 003d cc24 233d 02bf a53d c05a 05bd
00000080: 3af0 7dbd fd8f 0dbe e29f 243b 05a7 903d
00000090: 0d3c 213b 3c82 83bd de32 20bd de4a 333d
000000a0: 5190 7d3d 27df dfbd b044 88bd 4c95 d73c
000000b0: 82ae b23c f966 933d f85c 5dbc 7460 493d
000000c0: 7de9 80bd 770e 153e 32ef 4bbc 1355 2b3e
000000d0: 1faa f13c 8401 b63c 3196 753d 63b5 8f39
000000e0: baf2 ffbc c3ec 8abd 3f24 823d 26bf 7f3d
000000f0: 9658 bbbb bbbe 00be 477a bf3d db8b 993d
00000100: 6c8b 6cbd 456a c2bc 21f3 0bbd 2e54 373d
00000110: dab8 c13c 6b2e 1abd 2668 a6bd 872e 44bc
00000120: e2bd d7bc 6f06 953d b364 c73c f97b a2bc
00000130: 9172 943d fc88 29bd c3bf 023d e607 e2bc
00000140: 74c3 383c 83fb 4dbd 8d7d 96bd c2eb 84bd
00000150: ef4f 0f3c a3af f1bc b2ee 9f3d 23b7 033d
00000160: b32a 003e 976c 27bd 25f6 2f3d 5227 88bc
00000170: e8c6 56bd 8063 07bd 6cf8 583d 96ce 123e
00000180: a116 323d 6308 b13c 3051 f73c 64c6 ccbc
00000190: 054b 40bd 0950 2cbd 0c09 2fbd 9239 edbd
000001a0: 1804 253d 5ec6 9b3c 5cef f83b ad7a 14bc
000001b0: 1206 3abd 84a1 25be c68e 37bd beef cbbc
000001c0: e4af 91bc 111c 093d c805 12ba b3de 7bbd
000001d0: 8731 ccbb 358c b1bc a3ed 91bd 3729 393e
000001e0: 1ee5 bf3d b3b7 f23c 8d1d af3d ce1a 053e
000001f0: 8c59 78bd 3cd9 a8bc d37d 1dbd d44d d2bb
00000200: d36f 69bd 144e a2bd e864 463d 0367 82bc
00000210: 40ba f93c e1b2 ffbd 7e77 ac3d 07e4 a33c
00000220: 8c93 ab3a e1fd 0fbd eabf 00bc 045b 5c3d
00000230: 3516 e5bb 51c2 34bd 9c8e 3ebd c3f8 48be
00000240: c2a1 553c 39fa 933d 8f05 40bd 8e03 e3bd
00000250: b0bf eb3c fcd9 4cbe a0a0 623d e605 41bd
00000260: 9ec0 0ebe 3c73 143c f153 233d 01ad 1dbd
00000270: 5af6 35be 8468 3bbe 0968 6e3b 61ba eebc
00000280: 55e8 5dbd 4fe1 773b 2869 d3bc ef4b b0bd
00000290: 91c8 eabd 0f05 923d c864 09be f2b7 e83d
000002a0: 771f 6f3d 806b 3e3d 4bd8 833d d319 8dbb
000002b0: 50de 2f3e aa5a 9cba 2ae7 373d deaf bfbd
000002c0: 92dd d4bc 8853 e7bc 9703 86bd 15c5 18bc
000002d0: 7ff6 63bc f60e 093e 8581 5d3c 338b 613d
000002e0: db17 823d e8c7 583d 5d4f 693c d933 123d
000002f0: c9cc a63d 1e69 d63d a4cd 11bd 6645 4a3d
00000300: a534 c13d ad2e 323e 3d92 f4bd b4f2 cc3b
00000310: a55c 253d 87f6 583d f49c d9bd 05ac b1bd
00000320: 1c0d 15ba a73a bc3b 9c3e 5fbe f64c 0a3e
00000330: 61f3 86be 3049 863d abfc 93bd 20f9 7c3c
00000340: c9c6 57bd 99cd 443d d4b0 fabd 9147 4f3d
00000350: 4cee d03c 1c59 61be f336 d0bc baae ebbc
00000360: 5a07 c93d 6cf9 b33d 2d4f a63d 436c 2cbe
00000370: 6c39 27bd 05c4 1dbd fe4c 08bd 8095 843d
00000380: 5d4a 863d 84db cdbb aac9 5b3d 607c b73d
00000390: f38c 69bd 89ef b43d 2e86 9ebd f69e b93c
000003a0: bbf9 bb3b 0ebd d7bd fa26 9e3d 775b 8cbd
000003b0: cf7c de3d df27 15bd 416d 123e 4cd9 473a
000003c0: 8048 fdbb 5f54 b43c b646 603d 15ad a43b
000003d0: 8dbf ce3c 809b 3abd e016 12bd cc42 91be
000003e0: 628d 2fbd 8ff0 7b3c 9620 47bc 2dcd a33d
000003f0: 89f0 d9bc 234f 9ebb 0e4a 1abc babf 0f3d
0.06345593 0.02260245 0.0060771042 -0.1310298 -0.106532454 0.08121357 0.08466767 -0.037895158
0.043475382 0.02840334 -0.06602695 -0.07944975 -0.00058494665 -0.06180112 0.08804897 -0.069268875
-0.07069811 -0.100228876 -0.0046683266 0.10704473 -0.080499545 -0.008734195 -0.00850544 0.011106842
0.009471381 -0.009539079 0.03858582 0.049966343 0.031321146 0.039830014 0.080930725 -0.03255725
-0.061996676 -0.13824458 0.0025119712 0.070631064 0.0024602443 -0.064213246 -0.03911101 0.04377257
0.06190521 -0.10931235 -0.06653726 0.026316307 0.021811727 0.07197375 -0.013510935 0.04916425
-0.06294534 0.14556299 -0.012447165 0.16731672 0.029500065 0.02221752 0.059957687 0.0002741023
-0.03124367 -0.0678344 0.0635457 0.062438153 -0.0057173474 -0.12572758 0.093494944 0.074973784
-0.05775015 -0.023732314 -0.034167413 0.044758014 0.023647714 -0.037641924 -0.081253335 -0.011973984
-0.02633566 0.07276618 0.02434001 -0.019834505 0.07248414 -0.041390404 0.03192116 -0.027591657
0.011277068 -0.05028869 -0.07348166 -0.0649028 0.008747085 -0.029502695 0.078091994 0.032157075
0.12516288 -0.040875044 0.04295935 -0.016620312 -0.052435786 -0.033053875 0.05297129 0.14336619
0.04347861 0.021610444 0.03019008 -0.024996944 -0.046946544 -0.042068515 -0.042733237 -0.11583246
0.040287107 0.019015487 0.0075968932 -0.009062451 -0.045415945 -0.16174895 -0.044813894 -0.024894591
-0.017784066 0.03347403 -0.00055703195 -0.06149168 -0.00623149 -0.021673301 -0.07125404 0.18082128
0.093698725 0.02962861 0.08550558 0.12998506 -0.060632274 -0.020611398 -0.038450073 -0.0064179692
-0.05699141 -0.079250485 0.048436075 -0.01591826 0.030484319 -0.1248529 0.08421229 0.020006193
0.0013090237 -0.035154227 -0.007858256 0.053797737 -0.0069911727 -0.044130627 -0.04652272 -0.19626145
0.013039054 0.072254606 -0.0468803 -0.110846624 0.028777927 -0.2000503 0.055328965 -0.047124766
-0.13940665 0.009060677 0.039874975 -0.038495068 -0.17769757 -0.18301588 0.0036377928 -0.029141607
-0.054176647 0.0037823503 -0.025806978 -0.08608233 -0.11464036 0.07129871 -0.13417351 0.1136321
0.058379617 0.04648924 0.06437739 -0.004306057 0.17174649 -0.0011928875 0.04489819 -0.09359716
-0.02598456 -0.028238073 -0.065436535 -0.009324332 -0.01391375 0.13384613 0.013519649 0.05506439
0.06352206 0.05292502 0.014240113 0.035693977 0.081445284 0.10469268 -0.035596505 0.04938259
0.09433869 0.17400618 -0.11941955 0.0062545184 0.040371556 0.05296948 -0.106256396 -0.08675388
-0.00056858524 0.0057442966 -0.21801227 0.13505921 -0.26357558 0.06556928 -0.07225927 0.015440255
-0.05267981 0.048047636 -0.122407585 0.05060536 0.025504254 -0.22006649 -0.025416827 -0.02876984
0.09815855 0.08787808 0.0812057 -0.16838174 -0.040826246 -0.038517017 -0.03327655 0.06473827
0.065571524 -0.006282272 0.05365912 0.089592695 -0.057019185 0.0883475 -0.077404365 0.022658806
0.0057365573 -0.10534106 0.07722278 -0.06853383 0.10863649 -0.036414977 0.1429949 0.00076236273
-0.00772959 0.022012888 0.054754935 0.005025516 0.025237823 -0.045558453 -0.035666347 -0.28371274
-0.042859443 0.015377178 -0.012153765 0.079981185 -0.026603954 -0.004831211 -0.00941707 0.035094954

net.4.bias f4 [64]
00000000: a20a 42bd 24bd 773c 75d5 a53d 0303 943c
00000010: 2d7d 3fbd 7365 08bd 203e 19bd a1ce 36bd
00000020: bd52 d9bd 5625 5d3d 5259 82bc 1005 913d
00000030: dad9 453d d49d 683d c900 6a3d 038f 113d
00000040: 37fe 91bd 98f5 9ebd 4933 aebd 3490 ee3c
00000050: 4757 313d acef 453c 1e78 53bd 9a22 dabc
00000060: de03 69bc 374e 863d 20d1 ad3c dcab 193a
00000070: 53c5 69bd 27b1 b5bd afc3 653c 31f4 9a3d
00000080: 2eb8 0b3c b86f dd3c 7779 aabc f42b 62bd
00000090: ef8d 773d e390 203d 7df1 d03d 1030 a9bd
000000a0: 788d c5bc ed4e c33d 5f8f 88bc 2792 b33d
000000b0: d2ab 0f3d 2982 b73c af2f 0abd f595 d23d
000000c0: a885 06bd 604a 37bd 9229 35bd f482 3c3d
000000d0: 2e3d c43d 636c 593d eb5e 8f3c d985 943c
000000e0: f3a7 11bd 0f7d 723c 3545 c03b 299a cd3d
000000f0: 7cba a6bd 0c0c 01bd f3fc 78bc a95f 99bc
-0.04737342 0.015120778 0.08097354 0.018067842 -0.046750236 -0.033299875 -0.037412763 -0.04463065
-0.10611484 0.053990684 -0.015911732 0.07081044 0.048303463 0.05679114 0.057129655 0.035536777
-0.07128566 -0.07761687 -0.085058756 0.029121496 0.043296125 0.012081068 -0.051628225 -0.026627827
-0.014222113 0.06557887 0.021217883 0.0005862096 -0.05707295 -0.0887168 0.014023705 0.07566107
0.008527799 0.02703081 -0.020809872 -0.0552177 0.060438093 0.039200675 0.1020231 -0.0826112
-0.02411531 0.09536538 -0.016669927 0.08768111 0.03507597 0.022400932 -0.03373688 0.10282508
-0.03284231 -0.044748664 -0.044229098 0.046023324 0.095819816 0.05308188 0.017501315 0.01813023
-0.03556056 0.014800324 0.005867625 0.10039169 -0.08141038 -0.03150563 -0.015197027 -0.018722372
