w_p1/urban.pt (torch, 571573 bytes, 36 tensors)

net.0.weight f4 [64, 10]
00000000: 2b04 233e 4f34 bf3e 12b9 97bd 1dd4 f43e
00000010: 1e70 e13d 418d 1d3e 81dd c2bd 0ad0 0f3e
00000020: be1c ac3e 069c a6be 56c1 c33e 4a09 613e
00000030: 323d 6f3e 18b8 a53c b46b a23e c8c8 6e3d
00000040: ed3e c33e 3d05 873e f944 3abd 1fb3 703e
00000050: 6ba7 c7bd 3d30 54bd 6585 03be c6a7 9c3e
00000060: e805 58be 199c bdbd 39d6 06be e845 5dbe
00000070: e017 ea3c 9803 93be c864 743e 873c 93be
00000080: eafe 793e 6334 983d 4635 32b9 7dc8 ab3e
00000090: 2f12 b33d 932c 8a3e 5283 773d 78ca d0bd
000000a0: af98 a43e 152e 28be eb47 083e a506 e23e
000000b0: 1210 af3e 467c 40be 49cc 403e ca5b ac3d
000000c0: f704 303e 8be8 59be e7da cfbe c2c4 babc
000000d0: 0e60 78be 9255 a33e c23b 1a3e f91a ab3e
000000e0: 26b8 933d 624e 8b3c b3af 663e daf5 44be
000000f0: 55c2 e93d 8808 7fbe 0ab3 c73d 8b9a 22bd
00000100: f5ba d63d 2b78 a9bd a853 5e3e 990e 5fbe
00000110: 34b7 52be 44bc 22be 2664 c33e 90dc 7c3c
00000120: f3cb 9b3e 636e 41be 5554 9ebe c834 c2be
00000130: 9b9d 96be 6af8 113d f5a2 b13d c50f 6b3e
00000140: 14c2 34be 1b66 69be 73cf 2b3e c746 e4bd
00000150: 11ae 723e d834 033e 8e39 563e a94f 19be
00000160: 2ab5 1ebe 41f6 853e 907c 823e 5bdf 8bbd
00000170: 7f04 413e 3d63 663e 7901 90be 544d 49be
00000180: 73af a23e 394a 9ebd 4cb4 d3bd 5175 90be
00000190: 72bc 02be cc01 a43d 77f7 2abd 16ee 11be
000001a0: 8f9d 713d 0bd1 17be cc56 a1be 59af 35be
000001b0: eadc 99be 4e7d 1fbe c238 123f e209 ce3c
000001c0: 2993 c73d c7fd 39be 7557 9abe 19e8 76be
000001d0: 1ebb bc3b 02f0 93be 9787 63be 05d1 2abe
000001e0: 1205 2d3e 44cd 38be 6883 b3bc a6d8 f3bd
000001f0: 0384 6ebe 51df 57be a845 1cbe 96b1 89be
00000200: 686f 843e 604b 57bc 3a4f e73e 2411 913d
00000210: 8e1a 89be 63b8 983e 3e67 94bd 39b3 76be
00000220: 1358 97be eaa4 bfbe db9a c43d b2a6 8ebd
00000230: d7c5 0a3e af99 6ebe 4e69 703e b4b2 55be
00000240: 9fa7 febc cfcd d83d b307 793e 1e93 a53e
00000250: 77c3 bc3e 9796 63be 56c5 743e f1e1 ecbd
00000260: 1af1 0dbd 47ab 25be 5c10 bc3e 2013 94be
00000270: 2b25 3c3e 4269 e43d aa70 ef3d fed2 0abe
00000280: ffce ac3e 9bfd 323e 9b9f 263d 09be 7fbe
00000290: 8222 423e 50ca d23c ad9e f0bc d8d4 d03e
000002a0: b2a3 233e 738b c8bd 74cc 84be 038a adbd
000002b0: 98ce 343e b215 82bc b436 0cbe 19e6 39be
000002c0: b26c b4be 50eb 94bc 1eb6 353e b531 d3be
000002d0: e0c4 c8bd 97a8 7d3e ccde 6a3d 028f 43bd
000002e0: d83c a43e 0830 a13e 28f7 1b3e 05fa 35bd
000002f0: f3b8 71bd 52c9 673d 5112 3ebd 2abc b0bd
00000300: 78fc 4e3e 7d17 c63e 5630 493d 4c24 f23a
00000310: b837 a2bc 9a79 95bd e007 6d3d 11cc 043d
00000320: ed87 84be 9649 2cbe 1859 883e 0b9c 573e
00000330: ea9e 3c3d 65cc 0abe ce76 8ebe 452b b2be
00000340: 6d7c 03be ccb6 053e 7585 203e 7c27 6f3e
00000350: 3f1e 8fbe 42fb 10be 132c ba3d 8773 e13e
00000360: 93cb fb3d e0db f2bc 3d7f 393e 1155 c2bd
00000370: ac37 a3be d975 a63e 823d 13be 645a 643d
00000380: e1fd c5be 7baf cd3e db75 853e a6ca e93d
00000390: 459c 4fbe 89cb 99be e65c 82be ed94 d33e
000003a0: 6e77 1b3e 692a b73e e2bc 833e f050 773e
000003b0: 5b9a ac3d dccc 17be 2a9f 8fbe e9f8 62be
000003c0: 2de0 323e f23c 51be 8e56 82bd 13a9 3bbe
000003d0: e865 023c 27dd 81be 1862 40be ba7b 1f3e
000003e0: e5e2 b3bd e29d 943e 5710 f73d fa74 a5be
000003f0: 2e89 64bd 6bbb e7bd 3245 3abe 0848 bdbe
0.15919559 0.37344596 -0.07408346 0.4781808 0.11007713 0.15385915 -0.09514905 0.14044204
0.3361568 -0.3254091 0.3823344 0.219762 0.23363188 0.020229384 0.31722796 0.05829695
0.38133946 0.26371184 -0.045475934 0.2350583 -0.09748729 -0.051803816 -0.12843855 0.3059675
-0.21096003 -0.09258289 -0.13167657 -0.21608698 0.028575838 -0.2871368 0.2386657 -0.28757116
0.24413648 0.07431867 -0.00016995249 0.33551398 0.087437026 0.26987132 0.06042797 -0.10194868
0.32147738 -0.16423829 0.13308685 0.44145694 0.34191948 -0.18797407 0.18827929 0.08415945
0.17189394 -0.21280114 -0.40596697 -0.0227989 -0.24255392 0.31901222 0.15061858 0.33419016
0.07212858 0.01700515 0.22527961 -0.1923441 0.11414019 -0.24905598 0.09750946 -0.039698165
0.10484878 -0.08274873 0.217116 -0.21782912 -0.20577699 -0.1589213 0.38162345 0.015433446
0.30429038 -0.18889765 -0.30923715 -0.37930894 -0.29417118 0.035637297 0.0867366 0.22955234
-0.1765216 -0.22792856 0.16778354 -0.11146312 0.23699214 0.12813127 0.20920393 -0.14971794
-0.15498796 0.2616444 0.2548566 -0.06829711 0.18849371 0.22498794 -0.28126124 -0.19658405
0.31774482 -0.077290006 -0.10337123 -0.28214505 -0.12767199 0.08008155 -0.041739907 -0.14250979
0.05898815 -0.14825837 -0.31511533 -0.17742671 -0.30051357 -0.15575144 0.57117856 0.025151197
0.097448654 -0.18163215 -0.3014485 -0.24111976 0.005759611 -0.2889405 -0.22219692 -0.16681297
0.16896465 -0.18047053 -0.021913245 -0.11906557 -0.23292546 -0.21081282 -0.15260947 -0.268933
0.25866246 -0.013140529 0.45177633 0.070833474 -0.26778072 0.29828176 -0.072462544 -0.24091806
-0.29559383 -0.37430507 0.09599849 -0.06965388 0.13552032 -0.23300813 0.2347767 -0.20868951
-0.031085787 0.1058613 0.24319343 0.32338804 0.36867878 -0.22225414 0.23903403 -0.115665324
-0.03465376 -0.16178618 0.3673123 -0.2892084 0.18373553 0.11152889 0.11691411 -0.1355705
0.33751675 0.17479555 0.040679555 -0.24974836 0.18958476 0.025731236 -0.029372538 0.40787387
0.15980414 -0.09792223 -0.25937235 -0.08473589 0.17656934 -0.015879486 -0.13692743 -0.18154182
-0.35239178 -0.018178612 0.17745253 -0.4124886 -0.09803176 0.24771343 0.057341382 -0.047743805
0.3207767 0.31481957 0.15231001 -0.04442789 -0.059014272 0.05658848 -0.046404187 -0.086296394
0.20213497 0.38689795 0.049118362 0.0018473952 -0.01980196 -0.07298584 0.05786884 0.032421175
-0.25884953 -0.16824946 0.26630473 0.2105562 0.04604999 -0.13554533 -0.27825016 -0.34798637
-0.12840433 0.13058013 0.1567591 0.23354906 -0.27952763 -0.14158347 0.09090438 0.44033453
0.12294688 -0.02964586 0.18114944 -0.094888814 -0.31878412 0.32511786 -0.14378932 0.055750266
-0.38670257 0.40172943 0.2606648 0.11415605 -0.20274456 -0.30038098 -0.254615 0.4132456
0.15182278 0.35774544 0.25730044 0.24151969 0.084278785 -0.14824241 -0.2805112 -0.22165264
0.17468329 -0.20433405 -0.06364165 -0.18326215 0.007958867 -0.25364038 -0.1878742 0.15574542
-0.08783511 0.29026705 0.120636635 -0.3231581 -0.055794887 -0.11315044 -0.18190458 -0.36969018

net.0.bias f4 [64]
00000000: f522 813e 44ac 06be b619 c13e dcfe ac3e
00000010: a70e 1abe 0067 bbbd e50e 4b3e db78 803d
00000020: bac0 2d3c 28de dcbd 6b09 ab3e 596f 04be
00000030: ceb9 ac3e 58de e13d 12d2 453e f2e5 a63e
00000040: 5c5b 5a3d 6de5 cebd 2c2e d63d a043 be3e
00000050: ebe7 0ebe 9e49 683e 019c 5cbe d5ce 833e
00000060: 4fea 6a3e bb2a 5d3d e1f3 783e 0e8b ef3d
00000070: 43af 863e f8c3 2bbe 52fc 02bb 9271 943e
00000080: 5e34 e13e 7483 a63e b43f 3dbe 4705 a13e
00000090: 33d8 34bc d817 a93d b95c 6dbe 9822 213d
000000a0: 31a6 8e3e aa3e 093e 262c 9cbd 4bc4 8d3e
000000b0: d859 433d 0f07 d03e f81a 41be e971 34bd
000000c0: 45fc 40be 478b 033c 4c51 553e 4e96 b43e
000000d0: 53d6 453e 99c0 a93e a603 463d 3e29 b93e
000000e0: d852 ac3e 7234 c23e 8c68 15be 14c2 d63e
000000f0: ede1 bc3e 14ee 323d 2d83 c3bd 1941 26be
0.25221983 -0.13151652 0.37714928 0.33788192 -0.15044652 -0.09150505 0.198299 0.06273051
0.010605032 -0.107845604 0.33405623 -0.12933101 0.33735508 0.11028737 0.19318417 0.3259731
0.053309783 -0.10102353 0.10458025 0.3716097 -0.13955657 0.22684333 -0.21543886 0.25743738
0.22940944 0.05399583 0.24311782 0.116964445 0.2630559 -0.16773975 -0.001998682 0.28992897
0.43985265 0.32522166 -0.18481332 0.3144934 -0.011037874 0.08256501 -0.23179902 0.03933963
0.2786117 0.1340281 -0.07625608 0.27688822 0.047693104 0.40630385 -0.18857944 -0.044053946
-0.18846233 0.008028812 0.20831794 0.35270923 0.1932004 0.33154753 0.048343323 0.36164278
0.33656955 0.37930638 -0.14590663 0.41944945 0.36891118 0.04368408 -0.09546504 -0.1623577

net.2.weight f4 [32, 64]
00000000: 836c c83a a6e1 eebd 6ad6 e03c c4c9 363c
00000010: 9991 f7bd 5320 543c ff9f 14bd 761e 243d
00000020: 5d2f 643d 9f1f 0bbe 910e b83d cef8 bf3d
00000030: 6704 f43c 928c 14be cbf0 84bd aa47 5abd
00000040: 7e88 5fbd 0507 703d 298b b23c 8caa 963d
00000050: c51d 91bd 1adf 883c b48c b43c 086d 01be
00000060: 8202 16be a109 9fbd 3aa4 713d 2f99 16be
00000070: e277 0abe 2952 703d 19a0 2b3d 5ce1 973d
00000080: ff40 fabd 62a5 e9bd 88e7 5b3d dddf a73d
00000090: 5bb0 4d3d a56f 11bc b660 d53b 8760 c63d
000000a0: 17fa d4bd 58d3 adbd 5e3a 623d e3dc e4bd
000000b0: 8ce0 c3bd aa8b 843d 9616 cb3c c7e1 ff3b
000000c0: 0df2 8fbd b18c c8bc aa02 b53d 79c7 b7bd
000000d0: e9ef edbc cf03 f13c e9dc e8bd 05f6 c13d
000000e0: a497 abbd 08c9 65bd 6597 87bd 5133 e0bd
000000f0: 8f3f 18be c99c 143d d278 913c 2382 14be
00000100: 9d21 b1bd 6825 713e 6c1b 47bc 0199 9d3d
00000110: 1c86 88bd b06b a7bd 9fd4 35bd 4dc5 763d
00000120: 71c9 31be d14a ed3c d4f9 37bd 75d1 933c
00000130: 0a76 7ebb be09 10be 36ce 9a3d d860 983d
00000140: 3679 3e3d 4192 1fbe 2512 cf3d 0c43 c1bc
00000150: 96b0 d5bd b4fd 123e b243 d2bd 751e 4cbc
00000160: c959 c53d 6dd3 e1bd f1d7 853d c733 43be
00000170: 210b eabd 7c0f 4fbd 2e79 81bd 48a6 343e
00000180: 352b bebd de0c ef3d 6a65 a8bd 27c4 b03d
00000190: fc4f 8fbd e0bb 5cbd 124f 79bd 0d60 10bc
000001a0: 13bf 893d 1ad4 0fbe c37c e1bd 0318 373d
000001b0: 85c4 e43c dec1 d63c 3ac1 173d 5bfe c4b9
000001c0: 8d2c 0e3e 2690 3b3e 1d65 acbd 1a28 033e
000001d0: c56d b13d 7a18 fa3d 6484 25bd f76b 18bd
000001e0: c1fa 54bd b925 03bd 9a44 663d 219f 91bd
000001f0: c730 d53d 8fad ecbc 974a c63d 3d62 58bd
00000200: 72d4 21be 86ee 15be 79f7 98bd a106 ffbb
00000210: 8446 f0bd 8cac 1f3e ff7c 0ebc 722a 64bd
00000220: d700 3e3e 21a2 3bbe cf1f 72bd fe15 62be
00000230: 56dc f0bd 7ad1 fdbd e30c 6a3a aa6e d2bc
00000240: c582 02bd c3a2 b93d 3f9f 803d 9087 9dbc
00000250: 3733 f3bd 2604 323d e3fb 2a3c 028d 373e
00000260: 95d6 e13d 7dd7 973d f518 af3d af5a 9f3d
00000270: c981 533d f812 05be 8e49 273e 431c 0bbe
00000280: 0874 09bd 0acd b03d 95e5 263e 2981 103d
00000290: 23c9 dd3c 0c43 34be 5c82 19bd 360d e23d
000002a0: e9ad 153d 8877 b23d 91ae b0bd 8f28 c4bd
000002b0: 6310 353d 5527 b13c 3f1c 2f3e 5a3e 28be
000002c0: 4973 823d 19b5 33bd e985 333d 749d ac3d
000002d0: 272f 7d3d 92b6 ac3d 9eab 923d fd9a 83bc
000002e0: c105 5ebe 6cf8 aa3d 020a 973c 1986 153c
000002f0: 11e5 003d 14ca 84bd a16f 703e 94f3 893d
00000300: ecce 35bd 148c 52bd 1093 fdbc a852 58bd
00000310: 7833 e63d d696 873d 58ae d53d c175 05bc
00000320: ee3a a43c 248b 313d 107c 01be d6c9 2b3b
00000330: 5ac1 8abc 0687 8fbd 25f2 d7bd f717 d13d
00000340: f2b6 be3d c44b 6d3d 1100 e33d 0cc6 4fbd
00000350: 38de b0bc b863 1f3d 42a1 ecbc c8f1 c8bc
00000360: 6b51 e5bd d960 cc3c e21c abbd c0f4 943b
00000370: 9210 e83d 60ef 40bd 9c67 42bd f127 893d
00000380: 0c3d 3cbd a6fd 9dbc 1e7c dd3d 14e8 51bd
00000390: 2025 b7bd 52b5 a0bd 24f3 0dbd 80f1 72bd
000003a0: b6d8 84bd d0d1 4e3d 2804 ae3c 1cdf 23bd
000003b0: aae3 c6bd 5035 21bd 1708 7bbd 8241 48bd
000003c0: 88f1 e6bd db1c 973c d816 bcbd 40f1 d8bd
000003d0: 1629 d1bd 50b3 553d 9873 abbd 1fed 6bbd
000003e0: f548 b73d 46ed 873d c4c9 923d af0d 02be
000003f0: 42f3 c8bd 2049 41bd a32e c73d e082 513c
0.0015291128 -0.11664133 0.02744599 0.011156503 -0.120883174 0.01294716 -0.036285397 0.040068112
0.05570923 -0.13586281 0.08987153 0.093736276 0.029787255 -0.14506748 -0.0649124 -0.053291
-0.05457353 0.058600444 0.021794872 0.07356748 -0.07085756 0.016707946 0.022039749 -0.12639248
-0.14649394 -0.077655084 0.05899451 -0.14706872 -0.13522294 0.058672104 0.041900728 0.07416031
-0.12219428 -0.114084974 0.053687602 0.081969954 0.050217014 -0.008876716 0.006511773 0.0968638
-0.10399263 -0.08487576 0.055231445 -0.11174943 -0.09564313 0.06471951 0.024791043 0.007808897
-0.070285894 -0.02448115 0.08838399 -0.08973593 -0.029045062 0.029420761 -0.1137026 0.094707526
-0.083785325 -0.05609992 -0.06620673 -0.10947288 -0.14867996 0.036282334 0.017757807 -0.14502768
-0.08648989 0.23549426 -0.012152534 0.07695199 -0.06666204 -0.08174837 -0.044392224 0.060246754
-0.17362 0.02896634 -0.04491599 0.018044213 -0.003882768 -0.14066216 0.07558863 0.074403465
0.046502315 -0.15583135 0.10110883 -0.02359154 -0.10434072 0.14354593 -0.10266818 -0.012458433
0.09636266 -0.110266544 0.06535328 -0.1906272 -0.11427904 -0.050551876 -0.06321941 0.17641556
-0.09285585 0.11672376 -0.08222468 0.08631163 -0.06997678 -0.05389011 -0.060866423 -0.008811963
0.06725898 -0.14045754 -0.110101245 0.044700634 0.027925739 0.02621549 0.03704951 -0.00037573543
0.13884182 0.18316707 -0.08417723 0.12808266 0.08663515 0.122117 -0.04040946 -0.03721234
-0.05199695 -0.032018397 0.056217767 -0.071104296 0.10409694 -0.028891353 0.09682196 -0.052828062
-0.15803698 -0.1464177 -0.07469077 -0.0077827726 -0.117322 0.15593165 -0.008696794 -0.05570454
0.18555008 -0.18323566 -0.059112366 -0.22078702 -0.11760776 -0.1239347 0.0008928312 -0.025687534
-0.031862993 0.090642475 0.06280374 -0.01922968 -0.11875003 0.043460988 0.010436031 0.17924884
0.110272564 0.07414148 0.08549682 0.077809684 0.051637445 -0.12995517 0.16336653 -0.13585
-0.03355792 0.08632858 0.16298516 0.035279427 0.027073449 -0.17603701 -0.037477836 0.11037676
0.036542807 0.08714205 -0.08627046 -0.095780484 0.04420508 0.0216252 0.17100619 -0.16430035
0.06369645 -0.04387388 0.04382888 0.08428469 0.061812546 0.0843326 0.0716164 -0.016065115
-0.21681882 0.08348164 0.01843739 0.00912621 0.031468455 -0.06483856 0.23480083 0.06735912
-0.04438679 -0.05140312 -0.030953914 -0.052813202 0.11240286 0.066205665 0.10433644 -0.0081457505
0.020047631 0.043345585 -0.12644982 0.0026212833 -0.0169379 -0.070081756 -0.10544232 0.10209649
0.09312238 0.057933584 0.11083997 -0.05072598 -0.021590337 0.03891346 -0.028885487 -0.024529353
-0.1119717 0.024948524 -0.08355118 0.004545778 0.113312855 -0.047103286 -0.04746209 0.06697071
-0.045956656 -0.019285988 0.10814689 -0.051246718 -0.08942628 -0.07847084 -0.034655705 -0.059312344
-0.06486647 0.05049306 0.021242216 -0.040007696 -0.09711392 -0.039357483 -0.061287012 -0.048890598
-0.11276537 0.018446377 -0.091840446 -0.1059289 -0.10212915 0.05217296 -0.08371657 -0.057599183
0.08949462 0.06637053 0.0716739 -0.12700532 -0.09812023 -0.047188878 0.09725692 0.012787551

net.2.bias f4 [32]
00000000: cd96 c23d 73e8 513d 3b09 aa3d 19aa 50bd
00000010: a133 b83d 6fca de3d affb 2a3e 111f 53bd
00000020: d12b 423e bd60 333e 6721 d9bd dec4 a83d
00000030: 96d0 ddbd 4582 bbbd 120e e8bd 7a33 123e
00000040: 7eab 81bc 2264 9ebd dc1a 053d 17da 0d3e
00000050: b254 fbbd 3cd9 ec3c 3582 71bc 047c 073e
00000060: 1b91 88bd 7e4e 903c a4e5 a8bd 89d8 cbbc
00000070: b573 793d 9b0d 0d3c 8bdc 833d 5952 11bb
0.09501419 0.05124707 0.08302542 -0.050943468 0.089942224 0.10878455 0.16697572 -0.0515433
0.18962027 0.17517371 -0.10602074 0.082406744 -0.108308 -0.09155706 -0.11330809 0.14277449
-0.015828844 -0.077339426 0.03249632 0.13852726 -0.12272014 0.02891218 -0.014740516 0.13230902
-0.06668302 0.017615553 -0.082469255 -0.024883525 0.060901362 0.008609201 0.064385496 -0.0022174327

net.4.weight f4 [4, 32]
00000000: d256 35bd 4332 b13c b31d 4bbe 5ec9 023e
00000010: dbf1 d6bd 641c 08be 2cdb 4fbe f26c acbd
00000020: 5289 14be 7cb7 6bbe aecc 3c3d d1dc b5bc
00000030: 2c1a 1c3e dbd1 913d 530c 0f3e da1b fcbc
00000040: 9591 c9bb 5943 0f3e 8e92 4b3d a528 8dbe
00000050: ea5b 22bd c46d 8fbe 50f4 74bc b659 57be
00000060: 1b1f 163e 91a8 d13b ed02 ff3a 716e 61be
00000070: 2617 61be 726f 4cbd d552 d0bd 0061 26be
00000080: c100 c03d 865d 0fbe 4ad4 03be 7cb2 013e
00000090: 9496 343d 683b 6dbe d234 b6bd 34b6 8f3d
000000a0: 9a4d 9ebe d0ac 8abd 3985 d63c a4b8 ecbc
000000b0: a981 183e eba6 59be 4214 a73d 57ff 70be
000000c0: b281 90be 71e6 b63d de95 66be 7052 27be
000000d0: a265 be3d a6b7 93be 67ce 52be e89b 02be
000000e0: a296 163e b564 2abd 9bf4 fe3d b4ac 95bd
000000f0: 988f 98bd 5bc4 6fbe a5b0 1d3e 5c9d 14bd
00000100: b83b be3c 98f9 7c3e 7a49 b8be ef5b 383d
00000110: 02cb ddbd 1e94 9fbc 2039 a13d f523 6f3d
00000120: e145 c93d 3aa3 18be c9ad 25be 2586 03bd
00000130: 1711 14bd ed2d b6be b71f 383e 6d1e 2c3d
00000140: 52c8 08be cc18 8cbc 95d7 b93d d4aa 8ebd
00000150: cd8a b53d 9667 6bbd 8085 dd3d 8415 6f3e
00000160: fffb df3d 1bf4 863d 8050 13bd ca2f 913d
00000170: 7895 933d 340b 6b3d c270 3dbd 5d5d 493d
00000180: ec76 3cbd a30b 16be d33d c7bc 58a7 0cbe
00000190: 2fc8 aebd bc00 7b3e 4076 ce3d 0529 10be
000001a0: 0997 53bd 7e6f ea3d 0e54 eabc 3f95 bcbc
000001b0: 0476 3ebd d8b2 5e3e beca f33c 8f00 9a3d
000001c0: eed3 5d3e 8e9b 383e 2b40 5d3e e992 dc3d
000001d0: 4ca8 a1bd 2d84 8d3d 0f42 f1bd 7cfa 0e3e
000001e0: 2e7a 69bc f136 0cbd 6878 19be aaae 133e
000001f0: 2387 253e 528e 633e bf26 47bd 6dd4 dc3d
-0.04427225 0.021630412 -0.19835548 0.12772128 -0.10495349 -0.1329208 -0.20298451 -0.08419217
-0.14505509 -0.23019212 0.046093635 -0.02220002 0.15244359 0.07120105 0.13969545 -0.030775
-0.006151388 0.13990535 0.049700312 -0.27570072 -0.039638437 -0.28013432 -0.014950827 -0.21030316
0.14660303 0.0063982685 0.0019455828 -0.22014786 -0.21981487 -0.04991097 -0.10172049 -0.1624794
0.09375144 -0.1400052 -0.1287395 0.12665743 0.044088915 -0.23167193 -0.088967934 0.07017174
-0.3091858 -0.067712426 0.026186572 -0.028896637 0.14893211 -0.2125508 0.08158161 -0.23534904
-0.2822395 0.08930672 -0.22518107 -0.16340041 0.09296729 -0.2885105 -0.20586549 -0.12754786
0.147059 -0.041599948 0.124489985 -0.07308331 -0.07449263 -0.23414747 0.15399416 -0.036282882
0.023221835 0.24704587 -0.35993558 0.04500955 -0.10829736 -0.019479807 0.07872224 0.0583839
0.098277815 -0.14906016 -0.16179575 -0.032110352 -0.03614911 -0.35581914 0.17980848 0.042021204
-0.13357666 -0.017101668 0.09074322 -0.06966177 0.08864365 -0.057471834 0.10816479 0.23348051
0.10936736 0.06589528 -0.035965443 0.07089193 0.07206243 0.05738373 -0.046250112 0.049161304
-0.04601185 -0.14652877 -0.024321472 -0.13735712 -0.08534276 0.24511999 0.10081148 -0.14078148
-0.05165771 0.11447047 -0.028604534 -0.023020385 -0.046499267 0.21747911 0.029759761 0.07519638
0.21662876 0.1802809 0.2160651 0.107702084 -0.07893428 0.06909976 -0.11780178 0.1396274
-0.014250321 -0.034232084 -0.14987338 0.14422098 0.16164832 0.2222226 -0.048620936 0.107827045

net.4.bias f4 [4]
00000000: 8578 5dbd ea7e 3dbe 6dad 04be e14b 183e
-0.054070015 -0.18505445 -0.12956782 0.14872696

net.0.weight f4 [256, 10]
00000000: 2828 9dbc f1af 2d3e 50b3 16bd 1cce fbbd
00000010: c19e 8b3c 1dd3 833d 2890 9ebd 9db9 86be
00000020: e496 3abe b5d3 c2bd a684 723e 3039 993e
00000030: 494f c03b b17a 213e 379c 683e 8917 3bbe
00000040: 484c 2fbe 83aa 1e3e 7202 713e 7154 f03d
00000050: 7c51 98be fb7f 353e 11d1 85be 3204 7c3e
00000060: 7b4d e43d c3a7 123e f380 b3be 93c3 f2bd
00000070: c29a 233e 62bc 663e b2e4 1abe f8c3 663e
00000080: 7e86 90bd b225 34be 123d 15be b585 d1bb
00000090: 5f5b aabd e967 183e 8746 5bbe 6c62 f7bd
000000a0: 74ba d0be 8cb2 643e bab8 73bd 750d 75be
000000b0: 44ee 1ebb a0bb a8bd b471 a33d 90f2 d7bc
000000c0: d9f5 4c3e e1ad 0cbe d643 10be 317f 0dbe
000000d0: 8d3e 673d 7077 883e c002 11ba 5ff1 523e
000000e0: f579 8c3e d301 2bbe 9afb c5bc ee95 23be
000000f0: 9d4c 5e3e 0172 8bbd 928f c53d 4423 2fbb
00000100: 000e 7cbe 68f4 5dbe c3be a3be 8cb4 31be
00000110: 2a77 dd3d 0212 693d b319 8e3e 77a4 babe
00000120: 7566 17bc 0ce3 89be 12d5 eaba 8545 4b3d
00000130: 01a2 adbe 7385 8a3e 5712 05be 9981 873e
00000140: 2b37 13be 2148 0f3e f52f 933e 7f3e a1bd
00000150: 528d 40bd 6c85 a43e 54ed b2be feb2 1f3e
00000160: 81fa 88be 06e6 9c3e f1ab 68be 35ac 16be
00000170: b1a0 713e 8936 02be 7ce3 8b3e 74b1 633e
00000180: 1045 9c3e 415c 9fbe 5b50 d5bc c4d6 16be
00000190: 4aef c23d 0b2b 6fbe 55c8 043e 3656 27bc
000001a0: 52e0 febd 8010 a6be 528e 303e 44c1 d7bd
000001b0: 7d32 873e 1dd0 b33d 9ff9 ad3b 347c 26bd
000001c0: fe6c 33bd 1fc9 a3bd 8e4c 88be 1a2a 7c3e
000001d0: 9a08 5fbe 1d28 5b3e 5f79 cfbd a27a 683e
000001e0: 9cbc bc3e 84f0 88be 2cb1 853e db5d 553d
000001f0: 8335 41be bbd9 493e 0291 5c3e 901f 9d3e
00000200: a000 b3be 9de3 903e d760 b73e 5f2d a73e
00000210: 7e7b 303e 0bc1 09be 1444 a23e 475d c23e
00000220: 27a8 dcbd 157d 91bd 3241 713e 1775 933e
00000230: 6e35 793e 9fd8 aa3e be68 26be e1ce 64bd
00000240: fd17 f7bd 370d 513e 7475 913d 6e02 86be
00000250: af17 b8bd 527b 9ebe f0b7 b2be 7c09 903e
00000260: 0ae3 22be 7fa2 433e 980c a0bc 81bc 8ebd
00000270: 3a07 ec3b 9f99 923e 7a68 a5bb fa16 943e
00000280: 52df 943e 0980 653e 6ad7 92be df47 21be
00000290: 4eaf 91be d3d7 dbbd 1c83 5ebd cb15 223d
000002a0: 97d5 933e 8e1a 283e 6125 86be 656d 5bbe
000002b0: 2484 743e 22bd e73c e6db a53d 4f87 82bd
000002c0: 0c54 ea3b 420c 1f3e 76b6 54be 40f8 543e
000002d0: 4d6d 383e 86f4 25be 90ca 04be 8a29 12be
000002e0: 10de 173d b338 ccbd b957 a93e 31f5 9bbe
000002f0: 6940 31be 4b83 48be 28e4 eb3d 39cb 943d
00000300: 228c b8bd 1aac a03e 2033 64be f6ad fe3d
00000310: 5e11 2cbe 9af7 b9bd 4303 9dbe c0ea 86be
00000320: 37ad a2be 97b9 e23d e330 f3bd 593e 3b3e
00000330: 5b92 42be 5b02 ccbd 7378 133d d6b6 963e
00000340: a12e b2bd 255e 4b3e 7e5a 043e bda1 3c3e
00000350: da8e 4c3e 712b 393e cb61 45bd e5d1 f0bd
00000360: 14e9 9d3d 9508 193e bd16 c5bc aa20 303e
00000370: 0546 67be 8b3d 3e3e e2f2 1ebd 3e00 7ebe
00000380: f528 35be 3a37 8bbe a3c3 933d 3e12 33be
00000390: 5793 e2bd 98fa 11bd 6eea 7dbe 585d fc3b
000003a0: cd62 24bd 589c 083e 6ffc 853e 11e5 47be
000003b0: fe9b 503e 7320 f23a 95ca 42be b4a5 30be
000003c0: 3d0d 613e 6564 c63d 9759 27bc 2e4c 7bbe
000003d0: 4452 2d3e 6fe8 723d b94d 95be c635 5dbd
000003e0: 98f4 abbd cd72 24be 2c40 5bbe dea6 65be
000003f0: e576 9f3e 1f2e a6be 91e1 8c3e 77a9 7cbe
-0.019184187 0.16961648 -0.0367921 -0.122951716 0.017043473 0.06436751 -0.077423394 -0.26313487
-0.18221623 -0.09513036 0.23683414 0.29926443 0.0058688265 0.1576946 0.22715841 -0.18270697
-0.17118943 0.15494733 0.23536089 0.11734856 -0.29749668 0.17724602 -0.26136068 0.24610975
0.11147591 0.14321809 -0.35059318 -0.11853709 0.15977004 0.225328 -0.15126303 0.22535694
-0.07056902 -0.17592505 -0.14574078 -0.006394113 -0.08318209 0.14883389 -0.21413623 -0.12079319
-0.40767252 0.22333735 -0.05950234 -0.23930915 -0.0024250904 -0.08238912 0.079806715 -0.02636078
0.20015658 -0.13738205 -0.14088377 -0.13818051 0.056456137 0.26653624 -0.0005531721 0.20599888
0.27436796 -0.16699915 -0.024167825 -0.15975162 0.21708913 -0.06808854 0.096465245 -0.00267239
-0.24614716 -0.21675265 -0.31981477 -0.1735403 0.10813744 0.05690194 0.27753982 -0.36453602
-0.009240736 -0.26931036 -0.0017916283 0.049626846 -0.33912662 0.2705494 -0.12995277 0.26466063
-0.14376514 0.13992359 0.28747526 -0.07873248 -0.047009774 0.32133043 -0.34946692 0.15595624
-0.2675362 0.30644244 -0.2272184 -0.1471413 0.23596455 -0.12716116 0.27321994 0.22235662
0.3052144 -0.31125072 -0.026039293 -0.14730364 0.09518297 -0.23356263 0.12967046 -0.010213425
-0.124451295 -0.32434464 0.17241791 -0.10534909 0.26405707 0.08779929 0.005309298 -0.040645793
-0.043805115 -0.07997345 -0.26620907 0.24625435 -0.21780625 0.21402021 -0.101305716 0.2270303
0.36862648 -0.26746 0.26111734 0.05209146 -0.1886807 0.19711964 0.21539691 0.30688143
-0.34961414 0.28298655 0.3581607 0.32651803 0.17234609 -0.13452546 0.31692564 0.3796179
-0.1077426 -0.07103936 0.23560026 0.2880027 0.24336788 0.33368394 -0.16250893 -0.055861358
-0.12065122 0.20415197 0.071024805 -0.2617373 -0.08988892 -0.3095346 -0.34905958 0.28132236
-0.15906921 0.19104956 -0.019537255 -0.06969548 0.00720301 0.2863283 -0.005047855 0.2892378
0.2907663 0.22412123 -0.28679973 -0.15750073 -0.2845406 -0.107345246 -0.054324254 0.039571565
0.28873894 0.1641638 -0.26200393 -0.2142845 0.23878533 0.028288428 0.08098583 -0.06373464
0.0071511324 0.1553202 -0.20772728 0.20797825 0.18010445 -0.1620656 -0.12967896 -0.14273658
0.03707701 -0.09971752 0.3307474 -0.30460504 -0.17309727 -0.19581334 0.11518127 0.07265324
-0.09011103 0.31381303 -0.22285128 0.12435524 -0.168035 -0.090804294 -0.3066655 -0.26350975
-0.31772777 0.11070555 -0.11874559 0.18285502 -0.19001143 -0.09961387 0.03600354 0.29436368
-0.087003 0.19860132 0.12925145 0.18421073 0.19976369 0.18082978 -0.048188966 -0.11758784
0.07710472 0.1494468 -0.024058694 0.1719996 -0.22585304 0.18578164 -0.03880585 -0.2480478
-0.17691405 -0.27190572 0.07215049 -0.17487428 -0.11063259 -0.035639375 -0.24796459 0.007701557
-0.040133286 0.1334089 0.26169154 -0.19520976 0.20372006 0.0018472805 -0.19022591 -0.1725071
0.21977706 0.096871175 -0.010214231 -0.24540779 0.16925913 0.059303697 -0.2916086 -0.05400636
-0.08396262 -0.16059418 -0.21411198 -0.22426936 0.31145397 -0.32457063 0.27515844 -0.2467402

net.0.bias f4 [256]
00000000: 6573 d6bd 4730 783e 9920 2b3c 328e 453c
00000010: c5d3 5abe 85c1 dbbd d039 dc3c f67e 74be
00000020: ba4e 2c3d cf5e 3e3e c15c 703e 0104 963e
00000030: 772e 023d b7be d03d 0f65 5fbe b714 603e
00000040: dbdb bb3d 95d0 883e 4dca c3bc 233e ae3e
00000050: 777c 0a3e 1b65 aa3e 7ced 58bd eb07 5cbe
00000060: ff40 73be 491e a3be cc2f e13d 82fe 22be
00000070: 4954 9dbd 12fb 2c3e 44cf 7c3e cc11 c2bd
00000080: 1956 823e ca51 d2bb ea8d 68bc 215b ae3c
00000090: db5a 07be b04f e13d f961 523d 822d 02be
000000a0: 9986 383e 72bb e6bd a1ec 3dbe 7a06 c93d
000000b0: b17c 31bc 0bbc 3abe b0db 8abe cdca b1bd
000000c0: d1ae 52be a97a 233e 6ba1 223c 5ddb 273e
000000d0: 8ce2 193e d985 7e3d bca2 debd 1b3d 52be
000000e0: 2797 053e 70c8 8dbe 4170 1bbe 941e 8b3e
000000f0: cb74 053d 8145 993e 7024 5c3e 898e 96bd
00000100: 8619 80be 8829 913e b67f 053d adbc 803e
00000110: 161e 92be 70c5 e33d 289d 66be 58d9 f8bc
00000120: 671e 84be aa3b 9ebe 7c51 143d 3141 c13e
00000130: 97c3 cc3d 41c5 38bd 3ae8 af3e 09e8 1c3d
00000140: e230 4fbe edd7 2f3e b349 6c3e 2c95 a13e
00000150: e8a0 933e 19f0 9e3e 49f6 98bd 663a fa3d
00000160: 2b64 01be bdb8 c8ba 0919 883e c28a 66be
00000170: dbdb 283e aac9 34be 717b 6c3d f5fd 9fbb
00000180: 69e7 48be f5f1 203d 1022 f3bd ec81 be3e
00000190: 0181 06be 235e 543e db8d acbd ca2b 3abe
000001a0: ec58 7f3e 0309 85bd 7622 f8bd f76d 913d
000001b0: c394 613c 1191 a03d e0f6 b8bd f2d6 b83c
000001c0: 8546 243e 5bf0 093e 83ac a13e db11 ad3d
000001d0: 6556 b4bd 037b f7bc cf70 503c 7026 dabd
000001e0: 213e 56bd 72dd 833b f3fd 083e ce5b d83d
000001f0: 56d6 863e 5ba9 9dbe a0b2 823e 0aa9 41bd
00000200: 8665 41be dbb6 663e 7644 17be 3666 2fbe
00000210: 9bca fa3d d5f9 9d3d 6383 633e 5885 74be
00000220: d69a 613e c5ec 243e 2857 3a3e 86e7 07be
00000230: 6571 963c fa41 363e 869d 983e 5831 3fbe
00000240: cac9 96be 4958 9abe a125 983d 02cf 35be
00000250: 7820 633d f06d 17be ce1b 863d d714 75be
00000260: c2f1 833e 774d 93be f346 30be 700c e83d
00000270: 87ba 6abe 4c51 573d 277c a9bd 8dbf 29be
00000280: 6fe2 903e ac3e b1bc 2bcf af3d 0154 18be
00000290: e24d 493e 01a0 9f3e c30c af3e 5f4f fcbd
000002a0: 08f3 90be c06f 84be 7e7a 123e eeb6 203e
000002b0: 1e9c 643e 0f3b e53d 1b86 d53e a5fa 4fbe
000002c0: c173 63be 17c0 bebd a21b 823e c03a 12be
000002d0: 9a37 833e 1065 273d 7ed2 7b3e a72a c83e
000002e0: e346 983e 6c09 a23e 984b 7fbd 647a 21bd
000002f0: 6c76 183e 9e8d 9d3e 68a0 303d 1291 adbc
00000300: 4812 e7bd 19e5 fabd f23a 283e 5b48 7fbe
00000310: d698 b53e c9a8 b43c a199 0dbe d4c8 adbd
00000320: 8094 0fbe f98b 76be f1e2 153e bc2a acbd
00000330: cf52 babd 6339 0e3d c789 19bc a445 463e
00000340: d1f5 8ebe 74a1 ba3b a6fe 343b 261b 8bbe
00000350: 26cd c63e 02a3 08be 4f84 8f3e a939 8f3e
00000360: 9266 413d ae84 963e 19d8 88be e772 033d
00000370: 3fdd 4bbe 00ac 2cbe b9a7 413e 9aa5 383e
00000380: 9176 5cbe 7370 f7bd 48fa 26be f576 b33b
00000390: 6b4c 9cbe bf21 3abe a64a 9bbd ff2a cd3e
000003a0: 88f6 783d fe9d acbd 8b52 7b3e 85af 803e
000003b0: 22b1 7f3e bd63 663d 41c8 aab9 1800 5b3e
000003c0: 9892 4a3e df4f 903e 6013 453e 8386 633b
000003d0: ee2c 903e f6b3 a13d 2edc c13e f8ab b53e
000003e0: aa5a 9d3e ef92 723e 8e3e a03e 814c 20be
000003f0: 8244 02be 74b4 1abd 6e26 0cbe 36bd 943e
-0.104712285 0.24237166 0.010444784 0.012057828 -0.21369846 -0.1073027 0.026883036 -0.23876557
0.042067267 0.18590854 0.23472883 0.2929993 0.031782594 0.10192626 -0.21815895 0.21882902
0.091727935 0.26721635 -0.023900175 0.34031782 0.13524042 0.33280262 -0.052960858 -0.21487395
-0.23755263 -0.31859043 0.10995445 -0.159174 -0.07682092 0.1689265 0.2468844 -0.09476051
0.25456312 -0.0064184414 -0.014193991 0.021283688 -0.13218252 0.11001527 0.051362965 -0.12712672
0.18020095 -0.11266221 -0.18547298 0.098156884 -0.010832951 -0.18235795 -0.27120733 -0.08681259
-0.205745 0.1596476 0.00992618 0.16392274 0.15027827 0.062139366 -0.10870883 -0.20531122
0.13045941 -0.27691984 -0.1517954 0.27171767 0.032582086 0.2993584 0.21498275 -0.07351405
-0.25019473 0.28351998 0.032592498 0.25143948 -0.2853858 0.111216426 -0.22520888 -0.030377075
-0.25804445 -0.30904895 0.036210522 0.3774505 0.09998243 -0.04510999 0.34356862 0.038307223
-0.20233491 0.17172213 0.23074989 0.31559122 0.288337 0.31042555 -0.0746885 0.1221817
-0.12635867 -0.0015313845 0.265816 -0.2251387 0.16490118 -0.17655054 0.05773491 -0.004882569
-0.19619526 0.03929325 -0.11871731 0.37208498 -0.13135149 0.20739035 -0.08425494 -0.18180767
0.24936265 -0.064958595 -0.12115948 0.07101052 0.013768378 0.07840169 -0.09031463 0.022563431
0.16042526 0.13470595 0.31576928 0.08450671 -0.08805541 -0.030210024 0.012722208 -0.106518626
-0.052305344 0.004024201 0.13378124 0.10564385 0.263354 -0.3079327 0.25526905 -0.04728035
-0.18886384 0.22530691 -0.1477221 -0.17128834 0.12245675 0.07713667 0.22218089 -0.23878992
0.22031721 0.16105945 0.1819731 -0.13271913 0.018364618 0.17798606 0.2980768 -0.18671167
-0.29450828 -0.3014548 0.07429052 -0.17754748 0.055450886 -0.14788032 0.06548272 -0.23933731
0.25770384 -0.28770038 -0.17214565 0.11330497 -0.22922717 0.052567765 -0.08275633 -0.16576977
0.28297755 -0.02163633 0.08584436 -0.14875795 0.19658616 0.3117676 0.34189424 -0.12319826
-0.28310418 -0.25866508 0.1430454 0.15694782 0.22325179 0.11192905 0.41703877 -0.20310457
-0.22212125 -0.09313982 0.25411707 -0.14280224 0.25628358 0.040867865 0.24592015 0.3909504
0.29741582 0.31647813 -0.06232795 -0.03942336 0.14888924 0.30772108 0.043121725 -0.021187339
-0.11282784 -0.12250728 0.16428736 -0.24929945 0.35468167 0.02205314 -0.13828136 -0.084855705
-0.14021492 -0.24076833 0.14637353 -0.084065884 -0.09097826 0.034722697 -0.009371228 0.19362503
-0.27921918 0.0056955162 0.0027617603 -0.2716915 0.3882839 -0.13343433 0.2803063 0.2797368
0.04721696 0.29398102 -0.2672737 0.032092 -0.19908617 -0.16862488 0.18911637 0.18031922
-0.21529604 -0.12081995 -0.16306412 0.0054768273 -0.30527052 -0.18176936 -0.075825974 0.40071866
0.060781986 -0.08428572 0.24543206 0.2513391 0.24969915 0.05624746 -0.00032574128 0.21386755
0.19782484 0.28185937 0.19245672 0.0034717626 0.2815928 0.07895653 0.37863296 0.35482764
0.30733234 0.23688863 0.31297725 -0.15654184 -0.12721446 -0.03776975 -0.13686535 0.29050606

net.2.weight f4 [128, 256]
00000000: 16ff 6a3c 1422 373c 3b08 52bc 28ec 41bd
00000010: 9132 843c a4b8 c63d 06f5 d13d 8195 593d
00000020: f4d7 413d f4e0 3d3d 3a24 a33d 6fbc 2bbd
00000030: f98b 353c bb21 46bd 7846 9d3c 9bea 803d
00000040: f107 033d 98d1 0cbd 4f04 813d 1f21 23bd
00000050: 1136 053d 4d3a 523d b8d3 b638 fe89 56bd
00000060: 13f0 cb3d ebf9 0f3d 9a0b 673d a926 f3bc
00000070: cb56 fbba 3996 953c b2a7 58bc f9ab e33b
00000080: 4fe8 fe3d 584f ae3c 537d 583d ce0d 1d3c
00000090: 6deb bb3d c252 043d 7b2f 553d 80fa bc3d
000000a0: 3f51 02bd e443 c33d 8331 213d 7675 ffbb
000000b0: 0559 5dbb d0ed 97bb 1dc5 cbbd 5502 643d
000000c0: 51fc a13d 6ec8 3c3c 7f0d 9b3c 26a1 c53c
000000d0: d456 b0bc 8f4c 873d 1234 7cbd 427f 62bd
000000e0: b6c6 733d 29f7 86bd 0906 d0bb 5157 3fbc
000000f0: eb4d e33c 3186 c43d bb18 8f3d 89f8 96bc
00000100: 6b26 8cbd 24c8 283d d3ae 1e3d 46eb 5f3d
00000110: 3df7 97bd 22f6 883d c587 85bd 61de 3dbd
00000120: 27fa 9b3d 1d1e 16bd 41be 7e3c 1da1 b13d
00000130: 694d a23d d335 8a3d 19dd 173d ab1d 42bc
00000140: b228 23bd 80e1 7c3d f524 fdbc 1096 ecbc
00000150: 8cf7 7e3d 372b b63c bd85 1b3d b88a 13bd
00000160: ec0d a03c 23aa 70bc 18b7 643d 2f53 673d
00000170: bff5 733c 5092 983d a0b2 293d 8f19 d7bd
00000180: 009e a53c 4fbe 9cbc bbe7 b9bc fa0f 3f3b
00000190: 29b1 ecbb aa22 34bb 7fa0 103c 2b92 b2bc
000001a0: 6c90 57ba 9094 f4bd a94f 9ebd 20d0 8d3c
000001b0: e989 e5bb e7c0 d03c 385b 283d 427b a7bd
000001c0: 3df5 04bd cae8 06bd 39fb a93d fb4a 903c
000001d0: 62c2 01bd d8ca bf3d 7d1a 9c3d c794 6abc
000001e0: c004 073e 970a c83d 97a3 3bbd 6da1 93bc
000001f0: a32f 233d 9a11 56bc e5e9 143d d1e3 7b3d
00000200: 4961 bf3d e2b8 4fbc 5ec5 1e3e 88f9 98bd
00000210: 2351 c13d 61a7 45bd f4c0 2d3c 1b06 d2bc
00000220: c873 b4ba 4007 033d a85e e23b 1915 2bbd
00000230: 01e1 74bc bc20 af3d 9bd6 943c f68d a4bd
00000240: bddd b9bb f963 f3bc 3104 153d aaa2 d6bc
00000250: acab 413c 9f03 463d 8053 703d 4ed5 83bc
00000260: 0791 833d 6736 3abd 9f99 c1bd e6eb 2e3d
00000270: f93b c9bc a627 bc3c 697e f33d 5b98 653b
00000280: 4567 d43d 48b8 c7bc 2ecf 48bd 3121 123e
00000290: a54a ae3d 13af 833d cddb 953d f549 073e
000002a0: b872 9a3d 9edb e53c 98d6 c939 3481 f4bc
000002b0: a6de 143d bcfa 603d e68b ba3d efb0 673d
000002c0: 98bd 93bd 2663 fcbc 5457 8a3d 6eb2 c73d
000002d0: a7ca 033d 7dbc 86bc b6c5 cb3d 92ad ea3d
000002e0: 6bd4 febc ffd2 35bc 19f7 023d 88fc 80bd
000002f0: efa5 6d3d 55ee 5a3c a134 563d 066e 3cbd
00000300: ae36 a5bd 8f79 403b c6d5 aabc 5736 a2bd
00000310: c2cc ad3d 5cff b33d f2ed 2b3d 70eb 30bd
00000320: f036 f43d 3301 ffbc d53a 963d 35b2 8fbd
00000330: 2ec7 ad3d ddae 003e 67d8 8c3d 99d4 3fbd
00000340: 1b79 31bd ff0f 1ebc ebb2 d53c 18f1 3abc
00000350: 0b06 b23d 20ff 08bd 19ee 083d ce84 623d
00000360: c6de f8bc fff6 ebbb c161 633d ebc6 043e
00000370: eed7 e73d ff31 18bd a478 163d 3403 e3bc
00000380: 23ca 1abd 00f9 153d a39e 933d cd90 d93d
00000390: 9797 b3bd ac23 493d 608e fb3c 74e9 5f3c
000003a0: 2f12 a9bc ea2f 9cbc 670c e33c 5616 7e3c
000003b0: eae4 06bd 37ff 243d f05b 85bb 24f5 9ebb
000003c0: 0dbd d83d a715 f3bc a83c f9bc 9ea0 5e3d
000003d0: 2f45 c3bc dec9 dcbc 7931 8bbc f72f c83c
000003e0: 8cc4 7b3d 8fa0 83bc 2d02 c93c 6441 7abd
000003f0: c07b 31bd 0082 11bc 1ea7 aa3b 9b95 793d
0.014343044 0.011177558 -0.012819345 -0.047344357 0.016137393 0.09703186 0.10251813 0.053121094
0.04732509 0.04635711 0.07965894 -0.04192775 0.011080735 -0.04837201 0.019198641 0.062947474
0.031989995 -0.03437957 0.0629965 -0.03982651 0.032522265 0.05132513 8.717872e-05 -0.052377693
0.099579 0.03515045 0.05640755 -0.02968152 -0.0019175647 0.018260108 -0.013223575 0.006947991
0.12446653 0.021278068 0.052853893 0.009585811 0.09175763 0.032305487 0.052047234 0.092274666
-0.031815764 0.095344335 0.03935386 -0.007795985 -0.0033774984 -0.0046365038 -0.09949706 0.055666286
0.07909454 0.011522396 0.018927334 0.024124693 -0.021525778 0.06606399 -0.061573096 -0.055297144
0.059515677 -0.06590111 -0.0063483757 -0.011678533 0.027747115 0.095959075 0.06987139 -0.018429058
-0.06843265 0.041206494 0.038740944 0.054667734 -0.07420204 0.06687571 -0.065200366 -0.046354655
0.07616072 -0.036649812 0.01554829 0.08673308 0.07924921 0.067485474 0.03707609 -0.011847894
-0.039833732 0.06173849 -0.030901412 -0.02888015 0.062247798 0.022237403 0.03796934 -0.036020964
0.019537888 -0.014689001 0.055838674 0.056475814 0.014890133 0.07449782 0.041430116 -0.10502922
0.020216942 -0.019133715 -0.022693506 0.002915381 -0.0072232676 -0.0027486482 0.008827328 -0.021798214
-0.00082231197 -0.119423985 -0.07730038 0.017311156 -0.0070049656 0.025482608 0.041102618 -0.081778064
-0.03246044 -0.03293685 0.0829987 0.017613878 -0.03167952 0.09364861 0.0762224 -0.014317698
0.13185406 0.09767645 -0.04581031 -0.01802131 0.03984035 -0.01306572 0.03635587 0.06149656
0.093447275 -0.012678357 0.15504977 -0.07469469 0.09439304 -0.048255328 0.010605086 -0.025637677
-0.0013767416 0.031989336 0.0069082566 -0.041768167 -0.014946223 0.085511655 0.018168738 -0.080348894
-0.005672185 -0.029710757 0.03638095 -0.026200611 0.011820715 0.048343297 0.05867338 -0.016092923
0.06424146 -0.04546204 -0.09453129 0.04270544 -0.02456473 0.022968125 0.11889345 0.0035033438
0.103712596 -0.024379864 -0.049025707 0.14270474 0.08510331 0.06429877 0.07317314 0.13211806
0.07541412 0.028058823 0.00038497592 -0.029846765 0.036345147 0.05492662 0.09108715 0.05656522
-0.072138965 -0.030808996 0.06754938 0.0975083 0.032175686 -0.0164473 0.0994982 0.11458887
-0.031107148 -0.011097669 0.031973932 -0.062981665 0.058019575 0.013362487 0.052296285 -0.046003364
-0.0806707 0.002936933 -0.020853888 -0.07920521 0.0848632 0.0878894 0.04197497 -0.04319328
0.11924541 -0.031128502 0.0733544 -0.07016412 0.08485256 0.12566705 0.06877213 -0.04683361
-0.043328386 -0.009647368 0.026086291 -0.01141002 0.08692559 -0.03344643 0.033430193 0.055302434
-0.030379664 -0.007201075 0.055513147 0.12966506 0.11320482 -0.037157055 0.036736146 -0.027711488
-0.03779043 0.036614418 0.07207992 0.10623322 -0.08769148 0.049106285 0.030707538 0.013666499
-0.020638553 -0.019065816 0.027715875 0.015508255 -0.032933153 0.040282454 -0.0040697977 -0.0048510004
0.105829336 -0.02967341 -0.030424431 0.054352395 -0.0238367 -0.026951727 -0.016991364 0.024436934
0.06146674 -0.016067771 0.02453717 -0.061097518 -0.043330908 -0.008881092 0.00520791 0.06093369

net.2.bias f4 [128]
00000000: 62ef 233d 3ac7 e53c af23 8abd f25f b6bb
00000010: c400 f0bb c315 d5bc 32e5 963d 7ba2 80bd
00000020: 7569 233c 0d4e ba3d b31b 2f3d bece 7abc
00000030: ef07 313d e070 60bb 8d64 2e3d 000e cfbc
00000040: 8950 1b3d 294d 533d 9e15 483d ccb4 d13c
00000050: 2631 233d b624 183d 2611 be3d cc78 3dbd
00000060: a440 0bbd eeda 0d3d daba 0fbd 5904 393d
00000070: 698c d93c c61f 773b d93b 803c b4f0 803d
00000080: 63a9 a2bd a4ec bf3c 42c4 0d3c 49d6 a5bd
00000090: b14b 0d3d 7b43 3f3d e6c8 00bd 567d 153b
000000a0: c6c7 393d e7bf 093d 836a b63c 2bbf 823d
000000b0: 2583 8e3c fca1 543c d052 af3d d350 18bd
000000c0: 5a5e a3bc 93bf 183d 4446 80bd 7d31 dfbc
000000d0: e714 7d3d 46ba 4a3d 0d51 173d 2ca0 2dbd
000000e0: efbc dd3c 64ca fbbc 037a 643c c895 f73c
000000f0: 6a5f a73d 2714 52bd b47b 72bd dc80 313d
00000100: 944e 2a3d ad2c 133d 7be2 693d e44f 9fbc
00000110: 62f3 c63d ca7e 7a3c d777 8cbb 03d5 923b
00000120: 0520 3bbd a93f c43d f9e8 9dbc c1a1 1c3d
00000130: ff62 62bd 0b31 063b d8a1 1dbd ef54 8a3c
00000140: 81d2 543d ff26 823c deac 57bd a6f0 6bbd
00000150: 76c5 ae3c 3c02 923d f73d 063d 9c54 4bbd
00000160: ebaf 58bd d361 a03d 4e6e a03d 61ea a23c
00000170: fd21 c0bc 8b3e c43d 1265 893d f14e 50bd
00000180: 7076 4bbc 4cf7 26bc f78a a73d abf5 113d
00000190: e870 fd3c a2cd 8b3c 1e0c 89bc 12d0 93bd
000001a0: 9a05 5c3d ae8d 60bd 32af 853c 7373 3f3d
000001b0: 65b7 67bb 6da9 03bd e52e c93d cf0b 213b
000001c0: a2f1 903d ea4a a23d 69e8 4e3d 60cc ca3d
000001d0: e6f2 90bc f6e3 983d e4b2 1fbd 1065 ab3c
000001e0: 95a0 22bd 11e2 21bd c1f2 2e3d ad02 9abc
000001f0: a95e 913c 2790 a3bd 6fa0 15bc d3e2 c73c
0.040023215 0.0280491 -0.06745087 -0.005565637 -0.00732431 -0.026011353 0.07367934 -0.06280991
0.009973873 0.09096918 0.042751025 -0.01530808 0.043220457 -0.0034246966 0.04257636 -0.02527523
0.0379186 0.051587258 0.04884874 0.025598906 0.039841793 0.037144385 0.092806146 -0.04625778
-0.033997193 0.034632616 -0.035090305 0.045170162 0.02655621 0.0037708147 0.015653538 0.062959105
-0.07942464 0.023428269 0.008652749 -0.08097512 0.034496013 0.046695214 -0.03144159 0.0022810302
0.045356534 0.033630278 0.022267586 0.06384119 0.017396519 0.012978073 0.08560717 -0.037186455
-0.019942451 0.037292074 -0.06263402 -0.027245278 0.061787512 0.04949405 0.03694253 -0.04238908
0.02706763 -0.030736156 0.0139451055 0.030222788 0.08172496 -0.05128875 -0.059200004 0.04333578
0.041578844 0.035931278 0.057100754 -0.019447275 0.0971439 0.015289018 -0.004286747 0.0044809594
-0.045684833 0.09582455 -0.01927613 0.038240198 -0.05527019 0.002047601 -0.038484424 0.016886203
0.051958565 0.015887735 -0.052655093 -0.057602547 0.021334391 0.071293324 0.032773938 -0.049641237
-0.052902143 0.078311585 0.07833539 0.019887151 -0.023453707 0.095822416 0.06708731 -0.050856534
-0.012418374 -0.010190796 0.08180802 0.035634678 0.030937627 0.017065827 -0.01672941 -0.07217421
0.05371628 -0.054822616 0.016318891 0.04674096 -0.0035357114 -0.032144 0.098233975 0.002457369
0.07077338 0.07924445 0.050514612 0.09902263 -0.017693948 0.07465355 -0.038988963 0.020922214
-0.039703924 -0.039522234 0.042711977 -0.018800104 0.017745333 -0.07986479 -0.009132489 0.02440015

net.4.weight f4 [64, 128]
00000000: 78a1 883d 7c07 a13b 2a30 a5bc f59c 8dbd
00000010: d6fc 8bbd 897a 85bd e333 723d 7afc 3cbd
00000020: 1422 9e3c 4882 b73c 4ec9 64bd a720 41bd
00000030: 32c7 a8bc 175b 9dbd c125 a93d 5ecd 44bd
00000040: af91 c5bd dc37 95bd 35b6 42bc 5a8d a23d
00000050: 742d 9ebd 974d 10bc 7471 cebb 1dc6 83bc
00000060: 5ad7 68bc bb4a 25bd 547b 113d 4c81 2c3c
00000070: 22f9 a43d 197d 8a3d cd4e 233c a532 7abd
00000080: 8f43 11bc 69fc 8dbd 861b e43c 2230 1d3c
00000090: 070f 02bc e000 b7bd 5c3a 56bd 2e63 1f3d
000000a0: 50b4 553d c00c 85bd a302 92bd 5fb1 603b
000000b0: bc4d 0a3d 24b2 19bd bb7c 31bc 03ab 9b3d
000000c0: a117 2abd cee6 093d 1e65 91bc abc8 7e3d
000000d0: 63d7 073d 0917 e63c 6f2d 883d d414 993b
000000e0: 4adb e6bc 88a4 b7bd 35f5 a23d 5b7a 4d3d
000000f0: 42c3 babc ce8d b1bd d637 9e3d 979b 613d
00000100: 34eb 9ebd 6595 b03c 7d02 c9bb 6531 423d
00000110: 1018 91bc 23ef 33bd 3f64 3fbc f34f 283b
00000120: 47e2 7cbd d233 fb3c 6d32 a23d 6f70 aa3d
00000130: a55d 5f3d 7595 64bd 7ea5 db3c cf4a 1ebd
00000140: 8e96 823b 6e0b 84bd 03be 18bd 49c0 97bd
00000150: 4679 72bb 74da 97ba ebdf a63d 23b7 033d
00000160: 3b76 3e3d f574 68bd 466e c13a 95c6 b6bc
00000170: 23d8 623b d27f 21bd a169 0a3d e49c 973d
00000180: da51 be3c 3b9f 333b 1c08 4abc 7bd6 96bd
00000190: c7e2 5cbd a853 47bd e784 47bd 13f1 b3bd
000001a0: 19b1 513c ad6f 38bc 61ff f83b 1cd3 1b3d
000001b0: 6184 8dbd 0025 76bd aac4 a4bd 77ba e6bc
000001c0: 3e71 40bd f955 333d a197 30bb 93b8 24bd
000001d0: 82c6 be3c d27f 65bc dbfa 7dbc 2277 313d
000001e0: cb28 c4ba c226 263c 7c40 813d e500 7b3d
000001f0: ff78 5cbd 677b f9bc eba1 77bd 4c39 df3c
00000200: 9acd 26bd 3cdc 15bd 24f0 79bc 1a64 3e3d
00000210: 2a12 9abd bff4 90bd 992c 5e3d 0e8e 653c
00000220: a94e babc 48b3 cbbd 72fa e0bc 6d58 263d
00000230: 2828 58bd 1ff7 06bd 313f 83bd e8de b5bc
00000240: 2cda ca3b 8fb8 233d 2170 55bd 5f32 a3bd
00000250: 1690 5d3c 9ba6 a0bd 5032 103d 1812 4bbd
00000260: 016a 8cbd c5aa e1bc fda2 033d 4c33 96bd
00000270: a971 5bbc 51c7 4ebd a5fe 4dbd 22e3 95bd
00000280: e8d8 153d 8842 50bd 39bf 9cbd 68e9 a1bd
00000290: 4d4f 9a3d 4b4f 0dbb 4076 3cbb ba4e 8b3d
000002a0: bddf 4f3d cf8d 06bd 5c48 683d e820 aabc
000002b0: d185 833d ce07 5ebd 1b1a 913c 7c14 93bd
000002c0: 2e88 12bd 7f60 9cba 9703 86bd cbe0 c5bb
000002d0: 65af 4dbc f43d 9a3d 7fac 823b 338b 613d
000002e0: d019 303d 99f8 433d 5562 1a3d badf 753c
000002f0: 637e 593d 3bd4 893d c3fd 20bd b523 283d
00000300: d71c bd3c fce5 213d e432 5cbd b4f2 cc3b
00000310: c2cc 763b 190e b23c ca0b c13b 7366 3c3d
00000320: 6b9f 2ebd 2e92 bdbc 2f4b b4bd 0c4b 5c3d
00000330: ba7e c2bd 2379 9a3c ce11 87bd dfa6 ad3c
00000340: 3fdb 42bd 55d9 2b3d 687e b5bd 8bfe 2d3d
00000350: 5871 abbc 8baf b2bd ece3 06bd baae ebbc
00000360: cf03 bc3c 5b9d 803d 86e1 a53c 8013 73bc
00000370: af82 8339 71e2 a8bd 90a3 65bd 2b6f 993d
00000380: d57f 903d 9019 2dbc 61ee ae3c f73c 6d3d
00000390: 9214 85bd 20b7 76bb ce68 9ebd 6ab5 423c
000003a0: dad8 6bbc b04f 92bc fa26 9e3d b99c 8cbd
000003b0: 6b9b 4f3d b015 a6bc 144f a03d 00f1 03bc
000003c0: a29f e5bc 6014 3ab9 5a80 b33c 0bca 5ebc
000003d0: de3b f0bc d951 40bd 45df 17bc fad9 96bd
000003e0: cf98 eabc a100 ec3b 5927 0dbd 4496 493d
000003f0: 2d75 90bd be92 0dbc 0e4a 1abc ea5c 41bd
0.06671423 0.0049142223 -0.020164568 -0.06914703 -0.06835334 -0.06517512 0.059131514 -0.046139218
0.01930336 0.02240099 -0.05585604 -0.04715028 -0.020602796 -0.0768339 0.08259154 -0.048047416
-0.096469276 -0.07286045 -0.011884262 0.07937117 -0.07723513 -0.008807561 -0.0063001458 -0.016085679
-0.0142115 -0.04035447 0.035518005 0.010528874 0.08055331 0.06762142 0.009967518 -0.061083455
-0.008866205 -0.06932909 0.027845155 0.009593995 -0.007938153 -0.08935714 -0.05230175 0.038912944
0.052173913 -0.064965725 -0.07129409 0.003428541 0.03376554 -0.037523404 -0.010832961 0.07600977
-0.04152644 0.033667378 -0.017748412 0.06220309 0.033164393 0.028087156 0.06649291 0.0046716724
-0.028180737 -0.08966929 0.07956926 0.050165515 -0.022798184 -0.08669625 0.077254936 0.055080023
-0.07759705 0.021555612 -0.00613433 0.047410388 -0.01771167 -0.04392923 -0.011681615 0.002568242
-0.061739232 0.030664358 0.07919774 0.08322226 0.054532666 -0.055806596 0.026812311 -0.03864556
0.0039852327 -0.064474925 -0.037290584 -0.07409722 -0.0036998554 -0.001158549 0.08148178 0.032157075
0.046499472 -0.056752164 0.0014757595 -0.022311488 0.003461369 -0.03942854 0.03379214 0.074029714
0.02323239 0.0027408141 -0.012331035 -0.07365128 -0.05392721 -0.048663765 -0.04871073 -0.08786216
0.012798571 -0.011257094 0.007598803 0.038043126 -0.06910015 -0.06009388 -0.08045323 -0.028165085
-0.046982996 0.04378316 -0.0026945847 -0.040215086 0.023288015 -0.0140075255 -0.015501703 0.043326505
-0.001496577 0.0101410765 0.063111275 0.06128015 -0.05382633 -0.03045435 -0.06045715 0.027249001
-0.04072342 -0.036586985 -0.015255008 0.046482183 -0.07522996 -0.070779316 0.05424175 0.014010919
-0.022742586 -0.099463046 -0.027463172 0.040611673 -0.05277267 -0.032950517 -0.06408537 -0.022201017
0.006190559 0.03997093 -0.052108888 -0.07968592 0.013523122 -0.078442775 0.03520423 -0.049577802
-0.06856156 -0.02754725 0.03213786 -0.07334003 -0.013393798 -0.05048305 -0.050291676 -0.07318713
0.03658381 -0.0508447 -0.0765366 -0.07905847 0.07534657 -0.0021562155 -0.0028757006 0.06802125
0.050750483 -0.032850083 0.056709632 -0.020767644 0.06422008 -0.054206662 0.017712643 -0.071816415
-0.035774402 -0.0011930614 -0.065436535 -0.0060387603 -0.012554024 0.07531348 0.0039878483 0.05506439
0.042993367 0.047844503 0.037691433 0.015006954 0.053099047 0.06729933 -0.039304506 0.041049678
0.023085041 0.03952597 -0.05375947 0.0062545184 0.0037658666 0.021735238 0.005891298 0.04599614
-0.0426325 -0.023140993 -0.08803403 0.053782508 -0.094968274 0.01885659 -0.06595193 0.021197734
-0.04757237 0.04195531 -0.08862001 0.04247908 -0.02092807 -0.087248884 -0.032932207 -0.02876984
0.022951035 0.06280013 0.02024914 -0.014836192 0.00025083634 -0.08246315 -0.05606419 0.07491907
0.07055632 -0.010565177 0.021353902 0.05791947 -0.06498064 -0.0037645772 -0.07734834 0.011884073
-0.014394963 -0.017860264 0.07722278 -0.0686583 0.050685328 -0.020274013 0.07827583 -0.008053064
-0.02803022 -0.00017745933 0.021911789 -0.0135979755 -0.029325422 -0.046953056 -0.00926954 -0.073657945
-0.028637318 0.0072022234 -0.034461353 0.04921557 -0.070535995 -0.008640943 -0.00941707 -0.04720775

net.4.bias f4 [64]
00000000: b094 29bd 97d8 cebc d1a1 9e3d f82a 293c
00000010: e4a8 2c3b eaa8 c03b d8b2 27bd 7e4d 37bd
00000020: ba3f bbbd d208 743d 737f cebb 34ef 693d
00000030: 0522 a43d c144 813d 8a22 883c 369c 173d
00000040: f133 87bd 0c64 b8bd f08d 7cbd 32af 8b3c
00000050: c6d0 613d da75 883d 64b4 6cbd 2ecb 4b3b
00000060: 65ae 95bc 6d68 a83d dea2 c13c ac6f d4bc
00000070: 8126 1bbd 275d b8bd 17fa 7c3c 2f06 483d
00000080: dd31 94bb 6a50 d73c 0099 3a3c e38b 41bd
00000090: 8a62 c83c 1237 4c3d 401f b63d fbe5 8dbd
000000a0: 788d c5bc 3c73 bd3d 18a4 8dbc 93a7 6d3d
000000b0: 8f08 8d3d 3f1d 8e3c 2836 18bd 14ab ed3d
000000c0: 6927 03bd 8db4 83bd eab7 92bd 61cc 3c3d
000000d0: d2e7 003e 4609 583d c7d2 18bc 1943 9f3c
000000e0: 910c 9cbb eb58 f0bc 5a32 da3a b2d5 913d
000000f0: be4e a2bd d475 14bd 11bd 60bc 51b1 33bd
-0.041401565 -0.025249762 0.07745708 0.010325186 0.0026345784 0.005879511 -0.040942043 -0.044751637
-0.09143014 0.059578724 -0.006301814 0.057112888 0.08014301 0.06311942 0.016618032 0.03701421
-0.06601704 -0.090034574 -0.0616588 0.017051313 0.055130742 0.066631034 -0.05778922 0.0031096446
-0.018271634 0.08223043 0.023637231 -0.025932156 -0.037878517 -0.090021424 0.015440485 0.048834022
-0.0045225457 0.026283462 0.011389017 -0.047252547 0.02446105 0.049857207 0.08892679 -0.06928631
-0.02411531 0.09250495 -0.01729016 0.05802114 0.06886398 0.01734793 -0.037161022 0.11604896
-0.032020006 -0.06430922 -0.07163985 0.04609335 0.12588432 0.05274322 -0.009327597 0.019441174
-0.00476224 -0.029339274 0.0016647086 0.07120837 -0.07925175 -0.036245182 -0.013716952 -0.043870274
