w_ae/autoencoder_rural.pt (torch, 3929 bytes, 8 tensors)

encoder.0.weight f4 [4, 5]
0	0xbe3041af	-0.17212556
1	0xbe0335e1	-0.12813522
2	0x3debc488	0.11512095
3	0xbeced4c5	-0.40396705
4	0xbdf5f94b	-0.120104395
5	0xbe8530ce	-0.26013798
6	0xbf574cd0	-0.8410158
7	0xbf55c1e0	-0.83498955
8	0xbee525fc	-0.44755542
9	0xbf220fbf	-0.63305277
10	0x3e2905cd	0.16506119
11	0x3f362ce0	0.71162224
12	0x3eb18dfd	0.3467864
13	0x3eb7cff6	0.3590085
14	0x3f3cea44	0.7379496
15	0xbf6e83d7	-0.9316992
16	0xbeef21bd	-0.46705428
17	0xbf00c1f7	-0.50295967
18	0xbf240b70	-0.6407995
19	0xbe591a13	-0.21201353

encoder.0.bias f4 [4]
0	0x3e7720c7	0.24133597
1	0xbe9f0166	-0.31055754
2	0xbf89153f	-1.0709609
3	0xbf132f8b	-0.5749442

encoder.2.weight f4 [3, 4]
0	0xbe11403c	-0.1418466
1	0xbeb73909	-0.35785702
2	0xbf3ae871	-0.7301093
3	0xbe446bbe	-0.19181725
4	0x3e5a25ac	0.21303433
5	0x3e8d95d0	0.2765336
6	0x3e96fb87	0.29488775
7	0x3e578793	0.21047811
8	0xbe3f7a54	-0.18699008
9	0xbebe2be4	-0.3714286
10	0x3d6b07fd	0.057380665
11	0xbf2553b2	-0.64580834

encoder.2.bias f4 [3]
0	0x3ebe0ec3	0.37120637
1	0xbf1f8dc9	-0.6232572
2	0xbea89134	-0.3292328

decoder.0.weight f4 [4, 3]
0	0x3f4abe39	0.79196507
1	0xbf4364d6	-0.7632574
2	0xbec80102	-0.3906327
3	0xbed91a05	-0.42402664
4	0x3e2b6dcc	0.16741103
5	0x3bff5ea0	0.0077932626
6	0x3f298345	0.66215926
7	0xbe26bb90	-0.16282487
8	0x3edb70bb	0.42859444
9	0x3e91cc50	0.2847619
10	0x3e32d228	0.17462981
11	0xbdfef171	-0.12448395

decoder.0.bias f4 [4]
0	0xbebe2551	-0.37137845
1	0xbea9d652	-0.33171326
2	0xbf85f384	-1.046494
3	0xbe57fc75	-0.21092398

decoder.2.weight f4 [5, 4]
0	0x3e074950	0.1321156
1	0x3ec537b1	0.38519052
2	0x3eada8d5	0.3391787
3	0x3efcde2c	0.49388254
4	0x3e6a6fb0	0.22894168
5	0x3fbda63a	1.4816353
6	0x3f70fe25	0.94137794
7	0xbe8769ce	-0.2644791
8	0x3e86bc68	0.26315618
9	0x3f3ed4a9	0.74543244
10	0x3e8e8037	0.27832195
11	0xbe8d1680	-0.2755623
12	0x3f1146cd	0.5674866
13	0x3f41c58e	0.7569207
14	0x3f50405c	0.81348205
15	0x3dc85fe0	0.09783912
16	0x3f268c68	0.6505799
17	0x3fc05efc	1.5028987
18	0xbf248d4a	-0.6427809
19	0x3e97bf16	0.29637975

decoder.2.bias f4 [5]
0	0x40155dc8	2.333849
1	0x3f4dac34	0.80340886
2	0x3ff12218	1.883853
3	0x3fe27ca5	1.7694288
4	0x3f1f4b2a	0.62224066
