autoencoder_weights/autoencoder_urban.pt (torch, 3929 bytes, 8 tensors)

encoder.0.weight f4 [4, 5]
0	0x3d8779da	0.06615038
1	0x3e51ebad	0.2050006
2	0xbe56b056	-0.20965704
3	0xbcbde7b2	-0.02318177
4	0xbf0dfa0f	-0.55459684
5	0xbeb12eaa	-0.34605914
6	0x3e9b2784	0.30303586
7	0x3ed0c108	0.4077227
8	0xbdf30b94	-0.11867443
9	0x3f2cd190	0.67507267
10	0x3ef7364a	0.48283607
11	0x3ea84859	0.32867697
12	0x3e8c9895	0.2746016
13	0x3f070c16	0.52752817
14	0x3edec8b4	0.435125
15	0x3c3a6ff1	0.011379228
16	0xbee76e78	-0.45201468
17	0x3df8326e	0.12118994
18	0x3ea0a1d0	0.31373453
19	0x3f6a7415	0.9158338

encoder.0.bias f4 [4]
0	0xbee21e63	-0.44163808
1	0xbe7362cc	-0.23768157
2	0xbeac6043	-0.33667192
3	0x3f1080ca	0.56446517

encoder.2.weight f4 [3, 4]
0	0xbf39dae7	-0.72599643
1	0x3f2dd58e	0.67903984
2	0x3ea975c6	0.33097667
3	0x3e3da381	0.18519403
4	0x3e8fcc51	0.2808557
5	0x3e04a4a2	0.12953427
6	0xbf08d51b	-0.53450173
7	0x3f65ee83	0.89817065
8	0x3dfdb1da	0.12387438
9	0xbda2b162	-0.07943989
10	0x3f4295c6	0.76009786
11	0x3ddb34ee	0.10703455

encoder.2.bias f4 [3]
0	0x3e8d8418	0.27639842
1	0xbf0282bf	-0.5098075
2	0x3d8f2058	0.06988591

decoder.0.weight f4 [4, 3]
0	0x3f037df5	0.5136407
1	0x3f0a9e86	0.5414814
2	0x3e71df7d	0.2362041
3	0x3eaf561f	0.34245393
4	0xbf55be52	-0.8349353
5	0x3ef60e2c	0.48057687
6	0xbeb8b042	-0.36071974
7	0x3f77a1fc	0.96731544
8	0x3eb8f5a2	0.36124903
9	0x3daca78e	0.08430396
10	0x3e6a68de	0.22891566
11	0xbe3e434e	-0.18580362

decoder.0.bias f4 [4]
0	0xbe03b147	-0.12860595
1	0x3f0f43b7	0.559627
2	0x3e40e612	0.18837765
3	0xbef21fc4	-0.4728986

decoder.2.weight f4 [5, 4]
0	0xbd42c54d	-0.047551442
1	0x3f1e6041	0.6186562
2	0x3e1d7fae	0.15380737
3	0x3e368a9c	0.17826313
4	0x3d547e35	0.051878173
5	0x3f2f1fa6	0.68407667
6	0xbf4da529	-0.8033014
7	0xbe20bf94	-0.15698081
8	0x3eac5340	0.33657265
9	0x3eb96949	0.3621314
10	0x3e4da914	0.2008403
11	0x3eafcdc2	0.34336668
12	0x3e73c8cf	0.23807071
13	0x3ecc0bb1	0.3985267
14	0x3ebf7c09	0.3739932
15	0x3e877c1e	0.2646188
16	0x3f83b7e4	1.0290494
17	0xbdc52b75	-0.096274294
18	0xbece7fd9	-0.40331915
19	0x3d51f180	0.051255703

decoder.2.bias f4 [5]
0	0x3e9a9a16	0.30195683
1	0xbe741127	-0.23834668
2	0x3ea3a4d6	0.31961697
3	0x3e9afac6	0.3026945
4	0x3e5bac79	0.21452512
